{"format": "graph-model", "generatedBy": "1.15.2", "convertedBy": "TensorFlow.js Converter v1.4.0", "userDefinedMetadata": {"signature": {"outputs": {"Postprocessor/ExpandDims_1": {"name": "Postprocessor/ExpandDims_1"}, "Postprocessor/Slice": {"name": "Postprocessor/Slice"}}}}, "modelTopology": {"node": [{"name": "image_tensor", "op": "Placeholder", "attr": {"shape": {"shape": {"dim": [{"size": "-1"}, {"size": "-1"}, {"size": "-1"}, {"size": "3"}]}}, "dtype": {"type": "DT_UINT8"}}}, {"name": "Preprocessor/mul/x", "op": "Const", "attr": {"value": {"tensor": {"dtype": "DT_FLOAT", "tensorShape": {}}}, "dtype": {"type": "DT_FLOAT"}}}, {"name": "Preprocessor/sub/y", "op": "Const", "attr": {"dtype": {"type": "DT_FLOAT"}, "value": {"tensor": {"dtype": "DT_FLOAT", "tensorShape": {}}}}}, {"name": "Preprocessor/map/strided_slice/stack", "op": "Const", "attr": {"value": {"tensor": {"dtype": "DT_INT32", "tensorShape": {"dim": [{"size": "1"}]}}}, "dtype": {"type": "DT_INT32"}}}, {"name": "Preprocessor/map/strided_slice/stack_1", "op": "Const", "attr": {"value": {"tensor": {"dtype": "DT_INT32", "tensorShape": {"dim": [{"size": "1"}]}}}, "dtype": {"type": "DT_INT32"}}}, {"name": "Preprocessor/map/TensorArrayUnstack/range/start", "op": "Const", "attr": {"value": {"tensor": {"dtype": "DT_INT32", "tensorShape": {}}}, "dtype": {"type": "DT_INT32"}}}, {"name": "Preprocessor/map/TensorArrayUnstack/range/delta", "op": "Const", "attr": {"value": {"tensor": {"dtype": "DT_INT32", "tensorShape": {}}}, "dtype": {"type": "DT_INT32"}}}, {"name": "BoxPredictor_4/ClassPredictor/act_quant/max", "op": "Const", "attr": {"value": {"tensor": {"dtype": "DT_FLOAT", "tensorShape": {}}}, "dtype": {"type": "DT_FLOAT"}}}, {"name": "BoxPredictor_3/BoxEncodingPredictor/act_quant/min", "op": "Const", "attr": {"value": {"tensor": {"dtype": "DT_FLOAT", "tensorShape": {}}}, "dtype": {"type": "DT_FLOAT"}}}, {"name": "BoxPredictor_5/BoxEncodingPredictor/act_quant/min", "op": "Const", "attr": {"value": {"tensor": {"dtype": "DT_FLOAT", "tensorShape": {}}}, "dtype": {"type": "DT_FLOAT"}}}, {"name": "BoxPredictor_5/BoxEncodingPredictor/act_quant/max", "op": "Const", "attr": {"dtype": {"type": "DT_FLOAT"}, "value": {"tensor": {"dtype": "DT_FLOAT", "tensorShape": {}}}}}, {"name": "FeatureExtractor/MobilenetV1/MobilenetV1/Conv2d_11_pointwise/weights_quant/FakeQuantWithMinMaxVars", "op": "Const", "attr": {"value": {"tensor": {"dtype": "DT_FLOAT", "tensorShape": {"dim": [{"size": "1"}, {"size": "1"}, {"size": "512"}, {"size": "512"}]}}}, "dtype": {"type": "DT_FLOAT"}}}, {"name": "FeatureExtractor/MobilenetV1/MobilenetV1/Conv2d_11_pointwise/act_quant/min", "op": "Const", "attr": {"dtype": {"type": "DT_FLOAT"}, "value": {"tensor": {"dtype": "DT_FLOAT", "tensorShape": {}}}}}, {"name": "BoxPredictor_3/BoxEncodingPredictor/act_quant/max", "op": "Const", "attr": {"dtype": {"type": "DT_FLOAT"}, "value": {"tensor": {"dtype": "DT_FLOAT", "tensorShape": {}}}}}, {"name": "FeatureExtractor/MobilenetV1/MobilenetV1/Conv2d_11_pointwise/act_quant/max", "op": "Const", "attr": {"dtype": {"type": "DT_FLOAT"}, "value": {"tensor": {"dtype": "DT_FLOAT", "tensorShape": {}}}}}, {"name": "FeatureExtractor/MobilenetV1/MobilenetV1/Conv2d_12_depthwise/weights_quant/FakeQuantWithMinMaxVars", "op": "Const", "attr": {"dtype": {"type": "DT_FLOAT"}, "value": {"tensor": {"dtype": "DT_FLOAT", "tensorShape": {"dim": [{"size": "3"}, {"size": "3"}, {"size": "512"}, {"size": "1"}]}}}}}, {"name": "FeatureExtractor/MobilenetV1/MobilenetV1/Conv2d_12_pointwise/weights_quant/FakeQuantWithMinMaxVars", "op": "Const", "attr": {"value": {"tensor": {"dtype": "DT_FLOAT", "tensorShape": {"dim": [{"size": "1"}, {"size": "1"}, {"size": "512"}, {"size": "1024"}]}}}, "dtype": {"type": "DT_FLOAT"}}}, {"name": "BoxPredictor_3/ClassPredictor/weights_quant/FakeQuantWithMinMaxVars", "op": "Const", "attr": {"value": {"tensor": {"dtype": "DT_FLOAT", "tensorShape": {"dim": [{"size": "1"}, {"size": "1"}, {"size": "256"}, {"size": "12"}]}}}, "dtype": {"type": "DT_FLOAT"}}}, {"name": "BoxPredictor_3/ClassPredictor/act_quant/min", "op": "Const", "attr": {"dtype": {"type": "DT_FLOAT"}, "value": {"tensor": {"dtype": "DT_FLOAT", "tensorShape": {}}}}}, {"name": "FeatureExtractor/MobilenetV1/MobilenetV1/Conv2d_13_depthwise/weights_quant/FakeQuantWithMinMaxVars", "op": "Const", "attr": {"value": {"tensor": {"dtype": "DT_FLOAT", "tensorShape": {"dim": [{"size": "3"}, {"size": "3"}, {"size": "1024"}, {"size": "1"}]}}}, "dtype": {"type": "DT_FLOAT"}}}, {"name": "BoxPredictor_4/ClassPredictor/weights_quant/FakeQuantWithMinMaxVars", "op": "Const", "attr": {"value": {"tensor": {"dtype": "DT_FLOAT", "tensorShape": {"dim": [{"size": "1"}, {"size": "1"}, {"size": "256"}, {"size": "12"}]}}}, "dtype": {"type": "DT_FLOAT"}}}, {"name": "BoxPredictor_3/ClassPredictor/act_quant/max", "op": "Const", "attr": {"dtype": {"type": "DT_FLOAT"}, "value": {"tensor": {"dtype": "DT_FLOAT", "tensorShape": {}}}}}, {"name": "FeatureExtractor/MobilenetV1/MobilenetV1/Conv2d_13_pointwise/weights_quant/FakeQuantWithMinMaxVars", "op": "Const", "attr": {"value": {"tensor": {"dtype": "DT_FLOAT", "tensorShape": {"dim": [{"size": "1"}, {"size": "1"}, {"size": "1024"}, {"size": "1024"}]}}}, "dtype": {"type": "DT_FLOAT"}}}, {"name": "FeatureExtractor/MobilenetV1/Conv2d_13_pointwise_1_Conv2d_2_1x1_256/weights_quant/FakeQuantWithMinMaxVars", "op": "Const", "attr": {"dtype": {"type": "DT_FLOAT"}, "value": {"tensor": {"dtype": "DT_FLOAT", "tensorShape": {"dim": [{"size": "1"}, {"size": "1"}, {"size": "1024"}, {"size": "256"}]}}}}}, {"name": "FeatureExtractor/MobilenetV1/Conv2d_13_pointwise_1_Conv2d_2_1x1_256/act_quant/min", "op": "Const", "attr": {"value": {"tensor": {"dtype": "DT_FLOAT", "tensorShape": {}}}, "dtype": {"type": "DT_FLOAT"}}}, {"name": "BoxPredictor_4/ClassPredictor/act_quant/min", "op": "Const", "attr": {"dtype": {"type": "DT_FLOAT"}, "value": {"tensor": {"dtype": "DT_FLOAT", "tensorShape": {}}}}}, {"name": "FeatureExtractor/MobilenetV1/Conv2d_13_pointwise_1_Conv2d_2_1x1_256/act_quant/max", "op": "Const", "attr": {"dtype": {"type": "DT_FLOAT"}, "value": {"tensor": {"dtype": "DT_FLOAT", "tensorShape": {}}}}}, {"name": "BoxPredictor_4/BoxEncodingPredictor/weights_quant/FakeQuantWithMinMaxVars", "op": "Const", "attr": {"value": {"tensor": {"dtype": "DT_FLOAT", "tensorShape": {"dim": [{"size": "1"}, {"size": "1"}, {"size": "256"}, {"size": "24"}]}}}, "dtype": {"type": "DT_FLOAT"}}}, {"name": "FeatureExtractor/MobilenetV1/Conv2d_13_pointwise_2_Conv2d_2_3x3_s2_512/weights_quant/FakeQuantWithMinMaxVars", "op": "Const", "attr": {"value": {"tensor": {"dtype": "DT_FLOAT", "tensorShape": {"dim": [{"size": "3"}, {"size": "3"}, {"size": "256"}, {"size": "512"}]}}}, "dtype": {"type": "DT_FLOAT"}}}, {"name": "FeatureExtractor/MobilenetV1/Conv2d_13_pointwise_2_Conv2d_2_3x3_s2_512/act_quant/min", "op": "Const", "attr": {"value": {"tensor": {"dtype": "DT_FLOAT", "tensorShape": {}}}, "dtype": {"type": "DT_FLOAT"}}}, {"name": "BoxPredictor_4/BoxEncodingPredictor/act_quant/min", "op": "Const", "attr": {"dtype": {"type": "DT_FLOAT"}, "value": {"tensor": {"dtype": "DT_FLOAT", "tensorShape": {}}}}}, {"name": "FeatureExtractor/MobilenetV1/Conv2d_13_pointwise_2_Conv2d_2_3x3_s2_512/act_quant/max", "op": "Const", "attr": {"value": {"tensor": {"dtype": "DT_FLOAT", "tensorShape": {}}}, "dtype": {"type": "DT_FLOAT"}}}, {"name": "BoxPredictor_4/BoxEncodingPredictor/act_quant/max", "op": "Const", "attr": {"dtype": {"type": "DT_FLOAT"}, "value": {"tensor": {"dtype": "DT_FLOAT", "tensorShape": {}}}}}, {"name": "FeatureExtractor/MobilenetV1/Conv2d_13_pointwise_1_Conv2d_3_1x1_128/weights_quant/FakeQuantWithMinMaxVars", "op": "Const", "attr": {"dtype": {"type": "DT_FLOAT"}, "value": {"tensor": {"dtype": "DT_FLOAT", "tensorShape": {"dim": [{"size": "1"}, {"size": "1"}, {"size": "512"}, {"size": "128"}]}}}}}, {"name": "FeatureExtractor/MobilenetV1/Conv2d_13_pointwise_1_Conv2d_3_1x1_128/act_quant/min", "op": "Const", "attr": {"value": {"tensor": {"dtype": "DT_FLOAT", "tensorShape": {}}}, "dtype": {"type": "DT_FLOAT"}}}, {"name": "FeatureExtractor/MobilenetV1/Conv2d_13_pointwise_1_Conv2d_3_1x1_128/act_quant/max", "op": "Const", "attr": {"dtype": {"type": "DT_FLOAT"}, "value": {"tensor": {"dtype": "DT_FLOAT", "tensorShape": {}}}}}, {"name": "FeatureExtractor/MobilenetV1/Conv2d_13_pointwise_2_Conv2d_3_3x3_s2_256/weights_quant/FakeQuantWithMinMaxVars", "op": "Const", "attr": {"dtype": {"type": "DT_FLOAT"}, "value": {"tensor": {"dtype": "DT_FLOAT", "tensorShape": {"dim": [{"size": "3"}, {"size": "3"}, {"size": "128"}, {"size": "256"}]}}}}}, {"name": "FeatureExtractor/MobilenetV1/Conv2d_13_pointwise_2_Conv2d_3_3x3_s2_256/act_quant/min", "op": "Const", "attr": {"value": {"tensor": {"dtype": "DT_FLOAT", "tensorShape": {}}}, "dtype": {"type": "DT_FLOAT"}}}, {"name": "FeatureExtractor/MobilenetV1/Conv2d_13_pointwise_2_Conv2d_3_3x3_s2_256/act_quant/max", "op": "Const", "attr": {"value": {"tensor": {"dtype": "DT_FLOAT", "tensorShape": {}}}, "dtype": {"type": "DT_FLOAT"}}}, {"name": "FeatureExtractor/MobilenetV1/Conv2d_13_pointwise_1_Conv2d_4_1x1_128/weights_quant/FakeQuantWithMinMaxVars", "op": "Const", "attr": {"dtype": {"type": "DT_FLOAT"}, "value": {"tensor": {"dtype": "DT_FLOAT", "tensorShape": {"dim": [{"size": "1"}, {"size": "1"}, {"size": "256"}, {"size": "128"}]}}}}}, {"name": "FeatureExtractor/MobilenetV1/Conv2d_13_pointwise_1_Conv2d_4_1x1_128/act_quant/min", "op": "Const", "attr": {"dtype": {"type": "DT_FLOAT"}, "value": {"tensor": {"dtype": "DT_FLOAT", "tensorShape": {}}}}}, {"name": "FeatureExtractor/MobilenetV1/Conv2d_13_pointwise_1_Conv2d_4_1x1_128/act_quant/max", "op": "Const", "attr": {"dtype": {"type": "DT_FLOAT"}, "value": {"tensor": {"dtype": "DT_FLOAT", "tensorShape": {}}}}}, {"name": "FeatureExtractor/MobilenetV1/Conv2d_13_pointwise_2_Conv2d_4_3x3_s2_256/weights_quant/FakeQuantWithMinMaxVars", "op": "Const", "attr": {"value": {"tensor": {"dtype": "DT_FLOAT", "tensorShape": {"dim": [{"size": "3"}, {"size": "3"}, {"size": "128"}, {"size": "256"}]}}}, "dtype": {"type": "DT_FLOAT"}}}, {"name": "FeatureExtractor/MobilenetV1/Conv2d_13_pointwise_2_Conv2d_4_3x3_s2_256/act_quant/min", "op": "Const", "attr": {"dtype": {"type": "DT_FLOAT"}, "value": {"tensor": {"dtype": "DT_FLOAT", "tensorShape": {}}}}}, {"name": "FeatureExtractor/MobilenetV1/Conv2d_13_pointwise_2_Conv2d_4_3x3_s2_256/act_quant/max", "op": "Const", "attr": {"dtype": {"type": "DT_FLOAT"}, "value": {"tensor": {"dtype": "DT_FLOAT", "tensorShape": {}}}}}, {"name": "FeatureExtractor/MobilenetV1/Conv2d_13_pointwise_1_Conv2d_5_1x1_64/weights_quant/FakeQuantWithMinMaxVars", "op": "Const", "attr": {"value": {"tensor": {"dtype": "DT_FLOAT", "tensorShape": {"dim": [{"size": "1"}, {"size": "1"}, {"size": "256"}, {"size": "64"}]}}}, "dtype": {"type": "DT_FLOAT"}}}, {"name": "FeatureExtractor/MobilenetV1/Conv2d_13_pointwise_1_Conv2d_5_1x1_64/act_quant/min", "op": "Const", "attr": {"dtype": {"type": "DT_FLOAT"}, "value": {"tensor": {"dtype": "DT_FLOAT", "tensorShape": {}}}}}, {"name": "BoxPredictor_0/BoxEncodingPredictor/biases", "op": "Const", "attr": {"value": {"tensor": {"dtype": "DT_FLOAT", "tensorShape": {"dim": [{"size": "12"}]}}}, "dtype": {"type": "DT_FLOAT"}}}, {"name": "FeatureExtractor/MobilenetV1/Conv2d_13_pointwise_1_Conv2d_5_1x1_64/act_quant/max", "op": "Const", "attr": {"value": {"tensor": {"dtype": "DT_FLOAT", "tensorShape": {}}}, "dtype": {"type": "DT_FLOAT"}}}, {"name": "BoxPredictor_0/Reshape/shape/1", "op": "Const", "attr": {"dtype": {"type": "DT_INT32"}, "value": {"tensor": {"dtype": "DT_INT32", "tensorShape": {}}}}}, {"name": "BoxPredictor_0/Reshape/shape/3", "op": "Const", "attr": {"dtype": {"type": "DT_INT32"}, "value": {"tensor": {"dtype": "DT_INT32", "tensorShape": {}}}}}, {"name": "BoxPredictor_0/ClassPredictor/biases", "op": "Const", "attr": {"dtype": {"type": "DT_FLOAT"}, "value": {"tensor": {"dtype": "DT_FLOAT", "tensorShape": {"dim": [{"size": "6"}]}}}}}, {"name": "BoxPredictor_0/Reshape_1/shape/2", "op": "Const", "attr": {"value": {"tensor": {"dtype": "DT_INT32", "tensorShape": {}}}, "dtype": {"type": "DT_INT32"}}}, {"name": "BoxPredictor_1/BoxEncodingPredictor/biases", "op": "Const", "attr": {"value": {"tensor": {"dtype": "DT_FLOAT", "tensorShape": {"dim": [{"size": "24"}]}}}, "dtype": {"type": "DT_FLOAT"}}}, {"name": "BoxPredictor_1/ClassPredictor/biases", "op": "Const", "attr": {"dtype": {"type": "DT_FLOAT"}, "value": {"tensor": {"dtype": "DT_FLOAT", "tensorShape": {"dim": [{"size": "12"}]}}}}}, {"name": "FeatureExtractor/MobilenetV1/Conv2d_13_pointwise_2_Conv2d_5_3x3_s2_128/weights_quant/FakeQuantWithMinMaxVars", "op": "Const", "attr": {"value": {"tensor": {"dtype": "DT_FLOAT", "tensorShape": {"dim": [{"size": "3"}, {"size": "3"}, {"size": "64"}, {"size": "128"}]}}}, "dtype": {"type": "DT_FLOAT"}}}, {"name": "BoxPredictor_2/BoxEncodingPredictor/biases", "op": "Const", "attr": {"value": {"tensor": {"dtype": "DT_FLOAT", "tensorShape": {"dim": [{"size": "24"}]}}}, "dtype": {"type": "DT_FLOAT"}}}, {"name": "BoxPredictor_2/ClassPredictor/biases", "op": "Const", "attr": {"dtype": {"type": "DT_FLOAT"}, "value": {"tensor": {"dtype": "DT_FLOAT", "tensorShape": {"dim": [{"size": "12"}]}}}}}, {"name": "FeatureExtractor/MobilenetV1/Conv2d_13_pointwise_2_Conv2d_5_3x3_s2_128/act_quant/min", "op": "Const", "attr": {"dtype": {"type": "DT_FLOAT"}, "value": {"tensor": {"dtype": "DT_FLOAT", "tensorShape": {}}}}}, {"name": "BoxPredictor_3/BoxEncodingPredictor/biases", "op": "Const", "attr": {"value": {"tensor": {"dtype": "DT_FLOAT", "tensorShape": {"dim": [{"size": "24"}]}}}, "dtype": {"type": "DT_FLOAT"}}}, {"name": "FeatureExtractor/MobilenetV1/Conv2d_13_pointwise_2_Conv2d_5_3x3_s2_128/act_quant/max", "op": "Const", "attr": {"value": {"tensor": {"dtype": "DT_FLOAT", "tensorShape": {}}}, "dtype": {"type": "DT_FLOAT"}}}, {"name": "BoxPredictor_3/ClassPredictor/biases", "op": "Const", "attr": {"value": {"tensor": {"dtype": "DT_FLOAT", "tensorShape": {"dim": [{"size": "12"}]}}}, "dtype": {"type": "DT_FLOAT"}}}, {"name": "BoxPredictor_4/BoxEncodingPredictor/biases", "op": "Const", "attr": {"value": {"tensor": {"dtype": "DT_FLOAT", "tensorShape": {"dim": [{"size": "24"}]}}}, "dtype": {"type": "DT_FLOAT"}}}, {"name": "BoxPredictor_4/ClassPredictor/biases", "op": "Const", "attr": {"value": {"tensor": {"dtype": "DT_FLOAT", "tensorShape": {"dim": [{"size": "12"}]}}}, "dtype": {"type": "DT_FLOAT"}}}, {"name": "BoxPredictor_5/BoxEncodingPredictor/weights_quant/FakeQuantWithMinMaxVars", "op": "Const", "attr": {"value": {"tensor": {"dtype": "DT_FLOAT", "tensorShape": {"dim": [{"size": "1"}, {"size": "1"}, {"size": "128"}, {"size": "24"}]}}}, "dtype": {"type": "DT_FLOAT"}}}, {"name": "BoxPredictor_5/BoxEncodingPredictor/biases", "op": "Const", "attr": {"dtype": {"type": "DT_FLOAT"}, "value": {"tensor": {"dtype": "DT_FLOAT", "tensorShape": {"dim": [{"size": "24"}]}}}}}, {"name": "BoxPredictor_5/ClassPredictor/biases", "op": "Const", "attr": {"value": {"tensor": {"dtype": "DT_FLOAT", "tensorShape": {"dim": [{"size": "12"}]}}}, "dtype": {"type": "DT_FLOAT"}}}, {"name": "Postprocessor/strided_slice_1/stack_1", "op": "Const", "attr": {"value": {"tensor": {"dtype": "DT_INT32", "tensorShape": {"dim": [{"size": "1"}]}}}, "dtype": {"type": "DT_INT32"}}}, {"name": "Postprocessor/Reshape/shape", "op": "Const", "attr": {"dtype": {"type": "DT_INT32"}, "value": {"tensor": {"dtype": "DT_INT32", "tensorShape": {"dim": [{"size": "2"}]}}}}}, {"name": "Postprocessor/Decode/get_center_coordinates_and_sizes/transpose/perm", "op": "Const", "attr": {"dtype": {"type": "DT_INT32"}, "value": {"tensor": {"dtype": "DT_INT32", "tensorShape": {"dim": [{"size": "2"}]}}}}}, {"name": "Postprocessor/Slice/begin", "op": "Const", "attr": {"value": {"tensor": {"dtype": "DT_INT32", "tensorShape": {"dim": [{"size": "3"}]}}}, "dtype": {"type": "DT_INT32"}}}, {"name": "Postprocessor/Slice/size", "op": "Const", "attr": {"value": {"tensor": {"dtype": "DT_INT32", "tensorShape": {"dim": [{"size": "3"}]}}}, "dtype": {"type": "DT_INT32"}}}, {"name": "BoxPredictor_5/ClassPredictor/act_quant/min", "op": "Const", "attr": {"value": {"tensor": {"dtype": "DT_FLOAT", "tensorShape": {}}}, "dtype": {"type": "DT_FLOAT"}}}, {"name": "BoxPredictor_5/ClassPredictor/act_quant/max", "op": "Const", "attr": {"value": {"tensor": {"dtype": "DT_FLOAT", "tensorShape": {}}}, "dtype": {"type": "DT_FLOAT"}}}, {"name": "BoxPredictor_5/ClassPredictor/weights_quant/FakeQuantWithMinMaxVars", "op": "Const", "attr": {"value": {"tensor": {"dtype": "DT_FLOAT", "tensorShape": {"dim": [{"size": "1"}, {"size": "1"}, {"size": "128"}, {"size": "12"}]}}}, "dtype": {"type": "DT_FLOAT"}}}, {"name": "FeatureExtractor/MobilenetV1/MobilenetV1/Conv2d_0/BatchNorm_Fold/bias", "op": "Const", "attr": {"dtype": {"type": "DT_FLOAT"}, "value": {"tensor": {"dtype": "DT_FLOAT", "tensorShape": {"dim": [{"size": "32"}]}}}}}, {"name": "FeatureExtractor/MobilenetV1/MobilenetV1/Conv2d_1_depthwise/BatchNorm_Fold/bias", "op": "Const", "attr": {"value": {"tensor": {"dtype": "DT_FLOAT", "tensorShape": {"dim": [{"size": "32"}]}}}, "dtype": {"type": "DT_FLOAT"}}}, {"name": "FeatureExtractor/MobilenetV1/MobilenetV1/Conv2d_1_pointwise/BatchNorm_Fold/bias", "op": "Const", "attr": {"dtype": {"type": "DT_FLOAT"}, "value": {"tensor": {"dtype": "DT_FLOAT", "tensorShape": {"dim": [{"size": "64"}]}}}}}, {"name": "FeatureExtractor/MobilenetV1/MobilenetV1/Conv2d_2_depthwise/BatchNorm_Fold/bias", "op": "Const", "attr": {"dtype": {"type": "DT_FLOAT"}, "value": {"tensor": {"dtype": "DT_FLOAT", "tensorShape": {"dim": [{"size": "64"}]}}}}}, {"name": "FeatureExtractor/MobilenetV1/MobilenetV1/Conv2d_2_pointwise/BatchNorm_Fold/bias", "op": "Const", "attr": {"dtype": {"type": "DT_FLOAT"}, "value": {"tensor": {"dtype": "DT_FLOAT", "tensorShape": {"dim": [{"size": "128"}]}}}}}, {"name": "FeatureExtractor/MobilenetV1/MobilenetV1/Conv2d_3_depthwise/BatchNorm_Fold/bias", "op": "Const", "attr": {"value": {"tensor": {"dtype": "DT_FLOAT", "tensorShape": {"dim": [{"size": "128"}]}}}, "dtype": {"type": "DT_FLOAT"}}}, {"name": "FeatureExtractor/MobilenetV1/MobilenetV1/Conv2d_3_pointwise/BatchNorm_Fold/bias", "op": "Const", "attr": {"value": {"tensor": {"dtype": "DT_FLOAT", "tensorShape": {"dim": [{"size": "128"}]}}}, "dtype": {"type": "DT_FLOAT"}}}, {"name": "FeatureExtractor/MobilenetV1/MobilenetV1/Conv2d_4_depthwise/BatchNorm_Fold/bias", "op": "Const", "attr": {"dtype": {"type": "DT_FLOAT"}, "value": {"tensor": {"dtype": "DT_FLOAT", "tensorShape": {"dim": [{"size": "128"}]}}}}}, {"name": "FeatureExtractor/MobilenetV1/MobilenetV1/Conv2d_4_pointwise/BatchNorm_Fold/bias", "op": "Const", "attr": {"dtype": {"type": "DT_FLOAT"}, "value": {"tensor": {"dtype": "DT_FLOAT", "tensorShape": {"dim": [{"size": "256"}]}}}}}, {"name": "FeatureExtractor/MobilenetV1/MobilenetV1/Conv2d_5_depthwise/BatchNorm_Fold/bias", "op": "Const", "attr": {"value": {"tensor": {"dtype": "DT_FLOAT", "tensorShape": {"dim": [{"size": "256"}]}}}, "dtype": {"type": "DT_FLOAT"}}}, {"name": "FeatureExtractor/MobilenetV1/MobilenetV1/Conv2d_5_pointwise/BatchNorm_Fold/bias", "op": "Const", "attr": {"value": {"tensor": {"dtype": "DT_FLOAT", "tensorShape": {"dim": [{"size": "256"}]}}}, "dtype": {"type": "DT_FLOAT"}}}, {"name": "FeatureExtractor/MobilenetV1/MobilenetV1/Conv2d_6_depthwise/BatchNorm_Fold/bias", "op": "Const", "attr": {"dtype": {"type": "DT_FLOAT"}, "value": {"tensor": {"dtype": "DT_FLOAT", "tensorShape": {"dim": [{"size": "256"}]}}}}}, {"name": "FeatureExtractor/MobilenetV1/MobilenetV1/Conv2d_6_pointwise/BatchNorm_Fold/bias", "op": "Const", "attr": {"dtype": {"type": "DT_FLOAT"}, "value": {"tensor": {"dtype": "DT_FLOAT", "tensorShape": {"dim": [{"size": "512"}]}}}}}, {"name": "FeatureExtractor/MobilenetV1/MobilenetV1/Conv2d_7_depthwise/BatchNorm_Fold/bias", "op": "Const", "attr": {"dtype": {"type": "DT_FLOAT"}, "value": {"tensor": {"dtype": "DT_FLOAT", "tensorShape": {"dim": [{"size": "512"}]}}}}}, {"name": "FeatureExtractor/MobilenetV1/MobilenetV1/Conv2d_7_pointwise/BatchNorm_Fold/bias", "op": "Const", "attr": {"dtype": {"type": "DT_FLOAT"}, "value": {"tensor": {"dtype": "DT_FLOAT", "tensorShape": {"dim": [{"size": "512"}]}}}}}, {"name": "FeatureExtractor/MobilenetV1/MobilenetV1/Conv2d_8_depthwise/BatchNorm_Fold/bias", "op": "Const", "attr": {"dtype": {"type": "DT_FLOAT"}, "value": {"tensor": {"dtype": "DT_FLOAT", "tensorShape": {"dim": [{"size": "512"}]}}}}}, {"name": "FeatureExtractor/MobilenetV1/MobilenetV1/Conv2d_8_pointwise/BatchNorm_Fold/bias", "op": "Const", "attr": {"value": {"tensor": {"dtype": "DT_FLOAT", "tensorShape": {"dim": [{"size": "512"}]}}}, "dtype": {"type": "DT_FLOAT"}}}, {"name": "FeatureExtractor/MobilenetV1/MobilenetV1/Conv2d_9_depthwise/BatchNorm_Fold/bias", "op": "Const", "attr": {"value": {"tensor": {"dtype": "DT_FLOAT", "tensorShape": {"dim": [{"size": "512"}]}}}, "dtype": {"type": "DT_FLOAT"}}}, {"name": "FeatureExtractor/MobilenetV1/MobilenetV1/Conv2d_9_pointwise/BatchNorm_Fold/bias", "op": "Const", "attr": {"value": {"tensor": {"dtype": "DT_FLOAT", "tensorShape": {"dim": [{"size": "512"}]}}}, "dtype": {"type": "DT_FLOAT"}}}, {"name": "FeatureExtractor/MobilenetV1/MobilenetV1/Conv2d_10_depthwise/BatchNorm_Fold/bias", "op": "Const", "attr": {"dtype": {"type": "DT_FLOAT"}, "value": {"tensor": {"dtype": "DT_FLOAT", "tensorShape": {"dim": [{"size": "512"}]}}}}}, {"name": "FeatureExtractor/MobilenetV1/MobilenetV1/Conv2d_10_pointwise/BatchNorm_Fold/bias", "op": "Const", "attr": {"dtype": {"type": "DT_FLOAT"}, "value": {"tensor": {"dtype": "DT_FLOAT", "tensorShape": {"dim": [{"size": "512"}]}}}}}, {"name": "FeatureExtractor/MobilenetV1/MobilenetV1/Conv2d_11_depthwise/BatchNorm_Fold/bias", "op": "Const", "attr": {"dtype": {"type": "DT_FLOAT"}, "value": {"tensor": {"dtype": "DT_FLOAT", "tensorShape": {"dim": [{"size": "512"}]}}}}}, {"name": "FeatureExtractor/MobilenetV1/MobilenetV1/Conv2d_11_pointwise/BatchNorm_Fold/bias", "op": "Const", "attr": {"value": {"tensor": {"dtype": "DT_FLOAT", "tensorShape": {"dim": [{"size": "512"}]}}}, "dtype": {"type": "DT_FLOAT"}}}, {"name": "FeatureExtractor/MobilenetV1/MobilenetV1/Conv2d_12_depthwise/BatchNorm_Fold/bias", "op": "Const", "attr": {"value": {"tensor": {"dtype": "DT_FLOAT", "tensorShape": {"dim": [{"size": "512"}]}}}, "dtype": {"type": "DT_FLOAT"}}}, {"name": "FeatureExtractor/MobilenetV1/MobilenetV1/Conv2d_12_pointwise/BatchNorm_Fold/bias", "op": "Const", "attr": {"dtype": {"type": "DT_FLOAT"}, "value": {"tensor": {"dtype": "DT_FLOAT", "tensorShape": {"dim": [{"size": "1024"}]}}}}}, {"name": "FeatureExtractor/MobilenetV1/MobilenetV1/Conv2d_13_depthwise/BatchNorm_Fold/bias", "op": "Const", "attr": {"dtype": {"type": "DT_FLOAT"}, "value": {"tensor": {"dtype": "DT_FLOAT", "tensorShape": {"dim": [{"size": "1024"}]}}}}}, {"name": "FeatureExtractor/MobilenetV1/MobilenetV1/Conv2d_13_pointwise/BatchNorm_Fold/bias", "op": "Const", "attr": {"dtype": {"type": "DT_FLOAT"}, "value": {"tensor": {"dtype": "DT_FLOAT", "tensorShape": {"dim": [{"size": "1024"}]}}}}}, {"name": "FeatureExtractor/MobilenetV1/Conv2d_13_pointwise_1_Conv2d_2_1x1_256/BatchNorm_Fold/bias", "op": "Const", "attr": {"value": {"tensor": {"dtype": "DT_FLOAT", "tensorShape": {"dim": [{"size": "256"}]}}}, "dtype": {"type": "DT_FLOAT"}}}, {"name": "FeatureExtractor/MobilenetV1/Conv2d_13_pointwise_2_Conv2d_2_3x3_s2_512/BatchNorm_Fold/bias", "op": "Const", "attr": {"value": {"tensor": {"dtype": "DT_FLOAT", "tensorShape": {"dim": [{"size": "512"}]}}}, "dtype": {"type": "DT_FLOAT"}}}, {"name": "FeatureExtractor/MobilenetV1/Conv2d_13_pointwise_1_Conv2d_3_1x1_128/BatchNorm_Fold/bias", "op": "Const", "attr": {"dtype": {"type": "DT_FLOAT"}, "value": {"tensor": {"dtype": "DT_FLOAT", "tensorShape": {"dim": [{"size": "128"}]}}}}}, {"name": "FeatureExtractor/MobilenetV1/Conv2d_13_pointwise_2_Conv2d_3_3x3_s2_256/BatchNorm_Fold/bias", "op": "Const", "attr": {"dtype": {"type": "DT_FLOAT"}, "value": {"tensor": {"dtype": "DT_FLOAT", "tensorShape": {"dim": [{"size": "256"}]}}}}}, {"name": "FeatureExtractor/MobilenetV1/Conv2d_13_pointwise_1_Conv2d_4_1x1_128/BatchNorm_Fold/bias", "op": "Const", "attr": {"value": {"tensor": {"dtype": "DT_FLOAT", "tensorShape": {"dim": [{"size": "128"}]}}}, "dtype": {"type": "DT_FLOAT"}}}, {"name": "FeatureExtractor/MobilenetV1/Conv2d_13_pointwise_2_Conv2d_4_3x3_s2_256/BatchNorm_Fold/bias", "op": "Const", "attr": {"dtype": {"type": "DT_FLOAT"}, "value": {"tensor": {"dtype": "DT_FLOAT", "tensorShape": {"dim": [{"size": "256"}]}}}}}, {"name": "FeatureExtractor/MobilenetV1/Conv2d_13_pointwise_1_Conv2d_5_1x1_64/BatchNorm_Fold/bias", "op": "Const", "attr": {"dtype": {"type": "DT_FLOAT"}, "value": {"tensor": {"dtype": "DT_FLOAT", "tensorShape": {"dim": [{"size": "64"}]}}}}}, {"name": "FeatureExtractor/MobilenetV1/Conv2d_13_pointwise_2_Conv2d_5_3x3_s2_128/BatchNorm_Fold/bias", "op": "Const", "attr": {"value": {"tensor": {"dtype": "DT_FLOAT", "tensorShape": {"dim": [{"size": "128"}]}}}, "dtype": {"type": "DT_FLOAT"}}}, {"name": "FeatureExtractor/MobilenetV1/MobilenetV1/Conv2d_0/weights_quant/FakeQuantWithMinMaxVars", "op": "Const", "attr": {"dtype": {"type": "DT_FLOAT"}, "value": {"tensor": {"dtype": "DT_FLOAT", "tensorShape": {"dim": [{"size": "3"}, {"size": "3"}, {"size": "3"}, {"size": "32"}]}}}}}, {"name": "FeatureExtractor/MobilenetV1/MobilenetV1/Conv2d_0/act_quant/max", "op": "Const", "attr": {"value": {"tensor": {"dtype": "DT_FLOAT", "tensorShape": {}}}, "dtype": {"type": "DT_FLOAT"}}}, {"name": "FeatureExtractor/MobilenetV1/MobilenetV1/Conv2d_1_depthwise/weights_quant/FakeQuantWithMinMaxVars", "op": "Const", "attr": {"value": {"tensor": {"dtype": "DT_FLOAT", "tensorShape": {"dim": [{"size": "3"}, {"size": "3"}, {"size": "32"}, {"size": "1"}]}}}, "dtype": {"type": "DT_FLOAT"}}}, {"name": "FeatureExtractor/MobilenetV1/MobilenetV1/Conv2d_1_depthwise/act_quant/max", "op": "Const", "attr": {"value": {"tensor": {"dtype": "DT_FLOAT", "tensorShape": {}}}, "dtype": {"type": "DT_FLOAT"}}}, {"name": "BoxPredictor_0/BoxEncodingPredictor/weights_quant/FakeQuantWithMinMaxVars", "op": "Const", "attr": {"value": {"tensor": {"dtype": "DT_FLOAT", "tensorShape": {"dim": [{"size": "1"}, {"size": "1"}, {"size": "512"}, {"size": "12"}]}}}, "dtype": {"type": "DT_FLOAT"}}}, {"name": "FeatureExtractor/MobilenetV1/MobilenetV1/Conv2d_1_pointwise/weights_quant/FakeQuantWithMinMaxVars", "op": "Const", "attr": {"value": {"tensor": {"dtype": "DT_FLOAT", "tensorShape": {"dim": [{"size": "1"}, {"size": "1"}, {"size": "32"}, {"size": "64"}]}}}, "dtype": {"type": "DT_FLOAT"}}}, {"name": "BoxPredictor_0/BoxEncodingPredictor/act_quant/min", "op": "Const", "attr": {"value": {"tensor": {"dtype": "DT_FLOAT", "tensorShape": {}}}, "dtype": {"type": "DT_FLOAT"}}}, {"name": "FeatureExtractor/MobilenetV1/MobilenetV1/Conv2d_1_pointwise/act_quant/max", "op": "Const", "attr": {"dtype": {"type": "DT_FLOAT"}, "value": {"tensor": {"dtype": "DT_FLOAT", "tensorShape": {}}}}}, {"name": "BoxPredictor_0/BoxEncodingPredictor/act_quant/max", "op": "Const", "attr": {"value": {"tensor": {"dtype": "DT_FLOAT", "tensorShape": {}}}, "dtype": {"type": "DT_FLOAT"}}}, {"name": "FeatureExtractor/MobilenetV1/MobilenetV1/Conv2d_2_depthwise/weights_quant/FakeQuantWithMinMaxVars", "op": "Const", "attr": {"value": {"tensor": {"dtype": "DT_FLOAT", "tensorShape": {"dim": [{"size": "3"}, {"size": "3"}, {"size": "64"}, {"size": "1"}]}}}, "dtype": {"type": "DT_FLOAT"}}}, {"name": "FeatureExtractor/MobilenetV1/MobilenetV1/Conv2d_2_depthwise/act_quant/max", "op": "Const", "attr": {"dtype": {"type": "DT_FLOAT"}, "value": {"tensor": {"dtype": "DT_FLOAT", "tensorShape": {}}}}}, {"name": "FeatureExtractor/MobilenetV1/MobilenetV1/Conv2d_2_pointwise/weights_quant/FakeQuantWithMinMaxVars", "op": "Const", "attr": {"value": {"tensor": {"dtype": "DT_FLOAT", "tensorShape": {"dim": [{"size": "1"}, {"size": "1"}, {"size": "64"}, {"size": "128"}]}}}, "dtype": {"type": "DT_FLOAT"}}}, {"name": "FeatureExtractor/MobilenetV1/MobilenetV1/Conv2d_2_pointwise/act_quant/max", "op": "Const", "attr": {"value": {"tensor": {"dtype": "DT_FLOAT", "tensorShape": {}}}, "dtype": {"type": "DT_FLOAT"}}}, {"name": "BoxPredictor_0/ClassPredictor/weights_quant/FakeQuantWithMinMaxVars", "op": "Const", "attr": {"dtype": {"type": "DT_FLOAT"}, "value": {"tensor": {"dtype": "DT_FLOAT", "tensorShape": {"dim": [{"size": "1"}, {"size": "1"}, {"size": "512"}, {"size": "6"}]}}}}}, {"name": "FeatureExtractor/MobilenetV1/MobilenetV1/Conv2d_3_depthwise/weights_quant/FakeQuantWithMinMaxVars", "op": "Const", "attr": {"dtype": {"type": "DT_FLOAT"}, "value": {"tensor": {"dtype": "DT_FLOAT", "tensorShape": {"dim": [{"size": "3"}, {"size": "3"}, {"size": "128"}, {"size": "1"}]}}}}}, {"name": "FeatureExtractor/MobilenetV1/MobilenetV1/Conv2d_3_depthwise/act_quant/max", "op": "Const", "attr": {"dtype": {"type": "DT_FLOAT"}, "value": {"tensor": {"dtype": "DT_FLOAT", "tensorShape": {}}}}}, {"name": "BoxPredictor_0/ClassPredictor/act_quant/min", "op": "Const", "attr": {"dtype": {"type": "DT_FLOAT"}, "value": {"tensor": {"dtype": "DT_FLOAT", "tensorShape": {}}}}}, {"name": "BoxPredictor_0/ClassPredictor/act_quant/max", "op": "Const", "attr": {"value": {"tensor": {"dtype": "DT_FLOAT", "tensorShape": {}}}, "dtype": {"type": "DT_FLOAT"}}}, {"name": "FeatureExtractor/MobilenetV1/MobilenetV1/Conv2d_3_pointwise/weights_quant/FakeQuantWithMinMaxVars", "op": "Const", "attr": {"dtype": {"type": "DT_FLOAT"}, "value": {"tensor": {"dtype": "DT_FLOAT", "tensorShape": {"dim": [{"size": "1"}, {"size": "1"}, {"size": "128"}, {"size": "128"}]}}}}}, {"name": "FeatureExtractor/MobilenetV1/MobilenetV1/Conv2d_3_pointwise/act_quant/max", "op": "Const", "attr": {"value": {"tensor": {"dtype": "DT_FLOAT", "tensorShape": {}}}, "dtype": {"type": "DT_FLOAT"}}}, {"name": "FeatureExtractor/MobilenetV1/MobilenetV1/Conv2d_4_depthwise/weights_quant/FakeQuantWithMinMaxVars", "op": "Const", "attr": {"dtype": {"type": "DT_FLOAT"}, "value": {"tensor": {"dtype": "DT_FLOAT", "tensorShape": {"dim": [{"size": "3"}, {"size": "3"}, {"size": "128"}, {"size": "1"}]}}}}}, {"name": "FeatureExtractor/MobilenetV1/MobilenetV1/Conv2d_4_depthwise/act_quant/max", "op": "Const", "attr": {"dtype": {"type": "DT_FLOAT"}, "value": {"tensor": {"dtype": "DT_FLOAT", "tensorShape": {}}}}}, {"name": "BoxPredictor_1/BoxEncodingPredictor/weights_quant/FakeQuantWithMinMaxVars", "op": "Const", "attr": {"value": {"tensor": {"dtype": "DT_FLOAT", "tensorShape": {"dim": [{"size": "1"}, {"size": "1"}, {"size": "1024"}, {"size": "24"}]}}}, "dtype": {"type": "DT_FLOAT"}}}, {"name": "FeatureExtractor/MobilenetV1/MobilenetV1/Conv2d_4_pointwise/weights_quant/FakeQuantWithMinMaxVars", "op": "Const", "attr": {"dtype": {"type": "DT_FLOAT"}, "value": {"tensor": {"dtype": "DT_FLOAT", "tensorShape": {"dim": [{"size": "1"}, {"size": "1"}, {"size": "128"}, {"size": "256"}]}}}}}, {"name": "FeatureExtractor/MobilenetV1/MobilenetV1/Conv2d_4_pointwise/act_quant/max", "op": "Const", "attr": {"value": {"tensor": {"dtype": "DT_FLOAT", "tensorShape": {}}}, "dtype": {"type": "DT_FLOAT"}}}, {"name": "BoxPredictor_1/BoxEncodingPredictor/act_quant/min", "op": "Const", "attr": {"value": {"tensor": {"dtype": "DT_FLOAT", "tensorShape": {}}}, "dtype": {"type": "DT_FLOAT"}}}, {"name": "FeatureExtractor/MobilenetV1/MobilenetV1/Conv2d_5_depthwise/weights_quant/FakeQuantWithMinMaxVars", "op": "Const", "attr": {"value": {"tensor": {"dtype": "DT_FLOAT", "tensorShape": {"dim": [{"size": "3"}, {"size": "3"}, {"size": "256"}, {"size": "1"}]}}}, "dtype": {"type": "DT_FLOAT"}}}, {"name": "BoxPredictor_1/BoxEncodingPredictor/act_quant/max", "op": "Const", "attr": {"value": {"tensor": {"dtype": "DT_FLOAT", "tensorShape": {}}}, "dtype": {"type": "DT_FLOAT"}}}, {"name": "FeatureExtractor/MobilenetV1/MobilenetV1/Conv2d_5_pointwise/weights_quant/FakeQuantWithMinMaxVars", "op": "Const", "attr": {"value": {"tensor": {"dtype": "DT_FLOAT", "tensorShape": {"dim": [{"size": "1"}, {"size": "1"}, {"size": "256"}, {"size": "256"}]}}}, "dtype": {"type": "DT_FLOAT"}}}, {"name": "FeatureExtractor/MobilenetV1/MobilenetV1/Conv2d_5_pointwise/act_quant/max", "op": "Const", "attr": {"dtype": {"type": "DT_FLOAT"}, "value": {"tensor": {"dtype": "DT_FLOAT", "tensorShape": {}}}}}, {"name": "FeatureExtractor/MobilenetV1/MobilenetV1/Conv2d_6_depthwise/weights_quant/FakeQuantWithMinMaxVars", "op": "Const", "attr": {"dtype": {"type": "DT_FLOAT"}, "value": {"tensor": {"dtype": "DT_FLOAT", "tensorShape": {"dim": [{"size": "3"}, {"size": "3"}, {"size": "256"}, {"size": "1"}]}}}}}, {"name": "BoxPredictor_1/ClassPredictor/weights_quant/FakeQuantWithMinMaxVars", "op": "Const", "attr": {"dtype": {"type": "DT_FLOAT"}, "value": {"tensor": {"dtype": "DT_FLOAT", "tensorShape": {"dim": [{"size": "1"}, {"size": "1"}, {"size": "1024"}, {"size": "12"}]}}}}}, {"name": "BoxPredictor_1/ClassPredictor/act_quant/min", "op": "Const", "attr": {"value": {"tensor": {"dtype": "DT_FLOAT", "tensorShape": {}}}, "dtype": {"type": "DT_FLOAT"}}}, {"name": "FeatureExtractor/MobilenetV1/MobilenetV1/Conv2d_6_pointwise/weights_quant/FakeQuantWithMinMaxVars", "op": "Const", "attr": {"value": {"tensor": {"dtype": "DT_FLOAT", "tensorShape": {"dim": [{"size": "1"}, {"size": "1"}, {"size": "256"}, {"size": "512"}]}}}, "dtype": {"type": "DT_FLOAT"}}}, {"name": "FeatureExtractor/MobilenetV1/MobilenetV1/Conv2d_6_pointwise/act_quant/max", "op": "Const", "attr": {"value": {"tensor": {"dtype": "DT_FLOAT", "tensorShape": {}}}, "dtype": {"type": "DT_FLOAT"}}}, {"name": "BoxPredictor_1/ClassPredictor/act_quant/max", "op": "Const", "attr": {"value": {"tensor": {"dtype": "DT_FLOAT", "tensorShape": {}}}, "dtype": {"type": "DT_FLOAT"}}}, {"name": "FeatureExtractor/MobilenetV1/MobilenetV1/Conv2d_7_depthwise/weights_quant/FakeQuantWithMinMaxVars", "op": "Const", "attr": {"dtype": {"type": "DT_FLOAT"}, "value": {"tensor": {"dtype": "DT_FLOAT", "tensorShape": {"dim": [{"size": "3"}, {"size": "3"}, {"size": "512"}, {"size": "1"}]}}}}}, {"name": "FeatureExtractor/MobilenetV1/MobilenetV1/Conv2d_7_pointwise/weights_quant/FakeQuantWithMinMaxVars", "op": "Const", "attr": {"value": {"tensor": {"dtype": "DT_FLOAT", "tensorShape": {"dim": [{"size": "1"}, {"size": "1"}, {"size": "512"}, {"size": "512"}]}}}, "dtype": {"type": "DT_FLOAT"}}}, {"name": "BoxPredictor_2/BoxEncodingPredictor/weights_quant/FakeQuantWithMinMaxVars", "op": "Const", "attr": {"value": {"tensor": {"dtype": "DT_FLOAT", "tensorShape": {"dim": [{"size": "1"}, {"size": "1"}, {"size": "512"}, {"size": "24"}]}}}, "dtype": {"type": "DT_FLOAT"}}}, {"name": "FeatureExtractor/MobilenetV1/MobilenetV1/Conv2d_8_depthwise/weights_quant/FakeQuantWithMinMaxVars", "op": "Const", "attr": {"dtype": {"type": "DT_FLOAT"}, "value": {"tensor": {"dtype": "DT_FLOAT", "tensorShape": {"dim": [{"size": "3"}, {"size": "3"}, {"size": "512"}, {"size": "1"}]}}}}}, {"name": "BoxPredictor_2/BoxEncodingPredictor/act_quant/min", "op": "Const", "attr": {"dtype": {"type": "DT_FLOAT"}, "value": {"tensor": {"dtype": "DT_FLOAT", "tensorShape": {}}}}}, {"name": "BoxPredictor_2/BoxEncodingPredictor/act_quant/max", "op": "Const", "attr": {"value": {"tensor": {"dtype": "DT_FLOAT", "tensorShape": {}}}, "dtype": {"type": "DT_FLOAT"}}}, {"name": "FeatureExtractor/MobilenetV1/MobilenetV1/Conv2d_8_pointwise/weights_quant/FakeQuantWithMinMaxVars", "op": "Const", "attr": {"value": {"tensor": {"dtype": "DT_FLOAT", "tensorShape": {"dim": [{"size": "1"}, {"size": "1"}, {"size": "512"}, {"size": "512"}]}}}, "dtype": {"type": "DT_FLOAT"}}}, {"name": "FeatureExtractor/MobilenetV1/MobilenetV1/Conv2d_9_depthwise/weights_quant/FakeQuantWithMinMaxVars", "op": "Const", "attr": {"dtype": {"type": "DT_FLOAT"}, "value": {"tensor": {"dtype": "DT_FLOAT", "tensorShape": {"dim": [{"size": "3"}, {"size": "3"}, {"size": "512"}, {"size": "1"}]}}}}}, {"name": "BoxPredictor_2/ClassPredictor/weights_quant/FakeQuantWithMinMaxVars", "op": "Const", "attr": {"value": {"tensor": {"dtype": "DT_FLOAT", "tensorShape": {"dim": [{"size": "1"}, {"size": "1"}, {"size": "512"}, {"size": "12"}]}}}, "dtype": {"type": "DT_FLOAT"}}}, {"name": "FeatureExtractor/MobilenetV1/MobilenetV1/Conv2d_9_pointwise/weights_quant/FakeQuantWithMinMaxVars", "op": "Const", "attr": {"dtype": {"type": "DT_FLOAT"}, "value": {"tensor": {"dtype": "DT_FLOAT", "tensorShape": {"dim": [{"size": "1"}, {"size": "1"}, {"size": "512"}, {"size": "512"}]}}}}}, {"name": "BoxPredictor_2/ClassPredictor/act_quant/min", "op": "Const", "attr": {"dtype": {"type": "DT_FLOAT"}, "value": {"tensor": {"dtype": "DT_FLOAT", "tensorShape": {}}}}}, {"name": "BoxPredictor_2/ClassPredictor/act_quant/max", "op": "Const", "attr": {"dtype": {"type": "DT_FLOAT"}, "value": {"tensor": {"dtype": "DT_FLOAT", "tensorShape": {}}}}}, {"name": "FeatureExtractor/MobilenetV1/MobilenetV1/Conv2d_10_depthwise/weights_quant/FakeQuantWithMinMaxVars", "op": "Const", "attr": {"dtype": {"type": "DT_FLOAT"}, "value": {"tensor": {"dtype": "DT_FLOAT", "tensorShape": {"dim": [{"size": "3"}, {"size": "3"}, {"size": "512"}, {"size": "1"}]}}}}}, {"name": "FeatureExtractor/MobilenetV1/MobilenetV1/Conv2d_10_pointwise/weights_quant/FakeQuantWithMinMaxVars", "op": "Const", "attr": {"value": {"tensor": {"dtype": "DT_FLOAT", "tensorShape": {"dim": [{"size": "1"}, {"size": "1"}, {"size": "512"}, {"size": "512"}]}}}, "dtype": {"type": "DT_FLOAT"}}}, {"name": "BoxPredictor_3/BoxEncodingPredictor/weights_quant/FakeQuantWithMinMaxVars", "op": "Const", "attr": {"dtype": {"type": "DT_FLOAT"}, "value": {"tensor": {"dtype": "DT_FLOAT", "tensorShape": {"dim": [{"size": "1"}, {"size": "1"}, {"size": "256"}, {"size": "24"}]}}}}}, {"name": "FeatureExtractor/MobilenetV1/MobilenetV1/Conv2d_11_depthwise/weights_quant/FakeQuantWithMinMaxVars", "op": "Const", "attr": {"value": {"tensor": {"dtype": "DT_FLOAT", "tensorShape": {"dim": [{"size": "3"}, {"size": "3"}, {"size": "512"}, {"size": "1"}]}}}, "dtype": {"type": "DT_FLOAT"}}}, {"name": "ConstantFolding/Postprocessor/Decode/get_center_coordinates_and_sizes/truediv_recip", "op": "Const", "attr": {"dtype": {"type": "DT_FLOAT"}, "value": {"tensor": {"dtype": "DT_FLOAT", "tensorShape": {}}}}}, {"name": "ConstantFolding/Postprocessor/Decode/truediv_recip", "op": "Const", "attr": {"value": {"tensor": {"dtype": "DT_FLOAT", "tensorShape": {}}}, "dtype": {"type": "DT_FLOAT"}}}, {"name": "ConstantFolding/Postprocessor/Decode/truediv_2_recip", "op": "Const", "attr": {"dtype": {"type": "DT_FLOAT"}, "value": {"tensor": {"dtype": "DT_FLOAT", "tensorShape": {}}}}}, {"name": "Postprocessor/ExpandDims", "op": "Const", "attr": {"value": {"tensor": {"dtype": "DT_FLOAT", "tensorShape": {"dim": [{"size": "1"}, {"size": "1917"}, {"size": "4"}]}}}, "dtype": {"type": "DT_FLOAT"}}}, {"name": "Cast", "op": "Cast", "input": ["image_tensor"], "attr": {"SrcT": {"type": "DT_UINT8"}, "DstT": {"type": "DT_FLOAT"}, "Truncate": {"b": false}}}, {"name": "Preprocessor/map/while/Enter_1", "op": "Enter", "input": ["Preprocessor/map/TensorArrayUnstack/range/start"], "attr": {"frame_name": {"s": "UHJlcHJvY2Vzc29yL21hcC93aGlsZS93aGlsZV9jb250ZXh0"}, "is_constant": {"b": false}, "T": {"type": "DT_INT32"}, "parallel_iterations": {"i": "32"}}}, {"name": "Preprocessor/map/while/Enter", "op": "Enter", "input": ["Preprocessor/map/TensorArrayUnstack/range/start"], "attr": {"T": {"type": "DT_INT32"}, "parallel_iterations": {"i": "32"}, "frame_name": {"s": "UHJlcHJvY2Vzc29yL21hcC93aGlsZS93aGlsZV9jb250ZXh0"}, "is_constant": {"b": false}}}, {"name": "Preprocessor/mul", "op": "Mul", "input": ["Cast", "Preprocessor/mul/x"], "attr": {"T": {"type": "DT_FLOAT"}}}, {"name": "Preprocessor/map/while/Merge_1", "op": "Merge", "input": ["Preprocessor/map/while/Enter_1", "Preprocessor/map/while/NextIteration_1"], "attr": {"T": {"type": "DT_INT32"}, "N": {"i": "2"}}}, {"name": "Preprocessor/map/while/Merge", "op": "Merge", "input": ["Preprocessor/map/while/Enter", "Preprocessor/map/while/NextIteration"], "attr": {"N": {"i": "2"}, "T": {"type": "DT_INT32"}}}, {"name": "Preprocessor/sub", "op": "Sub", "input": ["Preprocessor/mul", "Preprocessor/sub/y"], "attr": {"T": {"type": "DT_FLOAT"}}}, {"name": "Preprocessor/map/Shape", "op": "Shape", "input": ["Preprocessor/sub"], "attr": {"out_type": {"type": "DT_INT32"}, "T": {"type": "DT_FLOAT"}}}, {"name": "Preprocessor/map/strided_slice", "op": "StridedSlice", "input": ["Preprocessor/map/Shape", "Preprocessor/map/strided_slice/stack", "Preprocessor/map/strided_slice/stack_1", "Preprocessor/map/strided_slice/stack_1"], "attr": {"T": {"type": "DT_INT32"}, "shrink_axis_mask": {"i": "1"}, "new_axis_mask": {"i": "0"}, "Index": {"type": "DT_INT32"}, "begin_mask": {"i": "0"}, "end_mask": {"i": "0"}, "ellipsis_mask": {"i": "0"}}}, {"name": "Preprocessor/map/TensorArray", "op": "TensorArrayV3", "input": ["Preprocessor/map/strided_slice"], "attr": {"tensor_array_name": {"s": ""}, "clear_after_read": {"b": true}, "dtype": {"type": "DT_FLOAT"}, "dynamic_size": {"b": false}, "identical_element_shapes": {"b": true}, "element_shape": {"shape": {"unknownRank": true}}}}, {"name": "Preprocessor/map/TensorArray_1", "op": "TensorArrayV3", "input": ["Preprocessor/map/strided_slice"], "attr": {"element_shape": {"shape": {"unknownRank": true}}, "identical_element_shapes": {"b": true}, "tensor_array_name": {"s": ""}, "dynamic_size": {"b": false}, "dtype": {"type": "DT_FLOAT"}, "clear_after_read": {"b": true}}}, {"name": "Preprocessor/map/while/Less/Enter", "op": "Enter", "input": ["Preprocessor/map/strided_slice"], "attr": {"is_constant": {"b": true}, "parallel_iterations": {"i": "32"}, "T": {"type": "DT_INT32"}, "frame_name": {"s": "UHJlcHJvY2Vzc29yL21hcC93aGlsZS93aGlsZV9jb250ZXh0"}}}, {"name": "Preprocessor/map/TensorArrayUnstack/range", "op": "Range", "input": ["Preprocessor/map/TensorArrayUnstack/range/start", "Preprocessor/map/strided_slice", "Preprocessor/map/TensorArrayUnstack/range/delta"], "attr": {"Tidx": {"type": "DT_INT32"}}}, {"name": "Preprocessor/map/while/TensorArrayReadV3/Enter", "op": "Enter", "input": ["Preprocessor/map/TensorArray"], "attr": {"frame_name": {"s": "UHJlcHJvY2Vzc29yL21hcC93aGlsZS93aGlsZV9jb250ZXh0"}, "parallel_iterations": {"i": "32"}, "is_constant": {"b": true}, "T": {"type": "DT_RESOURCE"}}}, {"name": "Preprocessor/map/while/TensorArrayWrite/TensorArrayWriteV3/Enter", "op": "Enter", "input": ["Preprocessor/map/TensorArray_1"], "attr": {"parallel_iterations": {"i": "32"}, "frame_name": {"s": "UHJlcHJvY2Vzc29yL21hcC93aGlsZS93aGlsZV9jb250ZXh0"}, "is_constant": {"b": true}, "T": {"type": "DT_RESOURCE"}}}, {"name": "Preprocessor/map/while/Enter_2", "op": "Enter", "input": ["Preprocessor/map/TensorArray_1:1"], "attr": {"is_constant": {"b": false}, "T": {"type": "DT_FLOAT"}, "parallel_iterations": {"i": "32"}, "frame_name": {"s": "UHJlcHJvY2Vzc29yL21hcC93aGlsZS93aGlsZV9jb250ZXh0"}}}, {"name": "Preprocessor/map/while/Less_1", "op": "Less", "input": ["Preprocessor/map/while/Merge_1", "Preprocessor/map/while/Less/Enter"], "attr": {"T": {"type": "DT_INT32"}}}, {"name": "Preprocessor/map/while/Less", "op": "Less", "input": ["Preprocessor/map/while/Merge", "Preprocessor/map/while/Less/Enter"], "attr": {"T": {"type": "DT_INT32"}}}, {"name": "Preprocessor/map/TensorArrayUnstack/TensorArrayScatter/TensorArrayScatterV3", "op": "TensorArrayScatterV3", "input": ["Preprocessor/map/TensorArray", "Preprocessor/map/TensorArrayUnstack/range", "Preprocessor/sub", "Preprocessor/map/TensorArray:1"], "attr": {"T": {"type": "DT_FLOAT"}}}, {"name": "Preprocessor/map/while/Merge_2", "op": "Merge", "input": ["Preprocessor/map/while/Enter_2", "Preprocessor/map/while/NextIteration_2"], "attr": {"N": {"i": "2"}, "T": {"type": "DT_FLOAT"}}}, {"name": "Preprocessor/map/while/LogicalAnd", "op": "LogicalAnd", "input": ["Preprocessor/map/while/Less", "Preprocessor/map/while/Less_1"]}, {"name": "Preprocessor/map/while/TensorArrayReadV3/Enter_1", "op": "Enter", "input": ["Preprocessor/map/TensorArrayUnstack/TensorArrayScatter/TensorArrayScatterV3"], "attr": {"frame_name": {"s": "UHJlcHJvY2Vzc29yL21hcC93aGlsZS93aGlsZV9jb250ZXh0"}, "parallel_iterations": {"i": "32"}, "is_constant": {"b": true}, "T": {"type": "DT_FLOAT"}}}, {"name": "Preprocessor/map/while/LoopCond", "op": "LoopCond", "input": ["Preprocessor/map/while/LogicalAnd"]}, {"name": "Preprocessor/map/while/Switch_1", "op": "Switch", "input": ["Preprocessor/map/while/Merge_1", "Preprocessor/map/while/LoopCond"], "attr": {"T": {"type": "DT_INT32"}}}, {"name": "Preprocessor/map/while/Switch_2", "op": "Switch", "input": ["Preprocessor/map/while/Merge_2", "Preprocessor/map/while/LoopCond"], "attr": {"T": {"type": "DT_FLOAT"}}}, {"name": "Preprocessor/map/while/Switch", "op": "Switch", "input": ["Preprocessor/map/while/Merge", "Preprocessor/map/while/LoopCond"], "attr": {"T": {"type": "DT_INT32"}}}, {"name": "Preprocessor/map/while/TensorArrayReadV3", "op": "TensorArrayReadV3", "input": ["Preprocessor/map/while/TensorArrayReadV3/Enter", "Preprocessor/map/while/Switch_1:1", "Preprocessor/map/while/TensorArrayReadV3/Enter_1"], "attr": {"dtype": {"type": "DT_FLOAT"}}}, {"name": "Preprocessor/map/while/Exit_2", "op": "Exit", "input": ["Preprocessor/map/while/Switch_2"], "attr": {"T": {"type": "DT_FLOAT"}}}, {"name": "Preprocessor/map/while/Identity", "op": "Identity", "input": ["Preprocessor/map/while/Switch:1"], "attr": {"T": {"type": "DT_INT32"}}}, {"name": "Preprocessor/map/TensorArrayStack/TensorArraySizeV3", "op": "TensorArraySizeV3", "input": ["Preprocessor/map/TensorArray_1", "Preprocessor/map/while/Exit_2"]}, {"name": "Preprocessor/map/while/add/y", "op": "Const", "input": ["^Preprocessor/map/while/Identity"], "attr": {"dtype": {"type": "DT_INT32"}, "value": {"tensor": {"dtype": "DT_INT32", "tensorShape": {}}}}}, {"name": "Preprocessor/map/while/ResizeImage/stack", "op": "Const", "input": ["^Preprocessor/map/while/Identity"], "attr": {"dtype": {"type": "DT_INT32"}, "value": {"tensor": {"dtype": "DT_INT32", "tensorShape": {"dim": [{"size": "2"}]}}}}}, {"name": "Preprocessor/map/while/ResizeImage/resize/ExpandDims/dim", "op": "Const", "input": ["^Preprocessor/map/while/Identity"], "attr": {"value": {"tensor": {"dtype": "DT_INT32", "tensorShape": {}}}, "dtype": {"type": "DT_INT32"}}}, {"name": "Preprocessor/map/TensorArrayStack/range", "op": "Range", "input": ["Preprocessor/map/TensorArrayUnstack/range/start", "Preprocessor/map/TensorArrayStack/TensorArraySizeV3", "Preprocessor/map/TensorArrayUnstack/range/delta"], "attr": {"Tidx": {"type": "DT_INT32"}}}, {"name": "Preprocessor/map/while/add", "op": "AddV2", "input": ["Preprocessor/map/while/Identity", "Preprocessor/map/while/add/y"], "attr": {"T": {"type": "DT_INT32"}}}, {"name": "Preprocessor/map/while/add_1", "op": "AddV2", "input": ["Preprocessor/map/while/Switch_1:1", "Preprocessor/map/while/add/y"], "attr": {"T": {"type": "DT_INT32"}}}, {"name": "Preprocessor/map/while/ResizeImage/resize/ExpandDims", "op": "ExpandDims", "input": ["Preprocessor/map/while/TensorArrayReadV3", "Preprocessor/map/while/ResizeImage/resize/ExpandDims/dim"], "attr": {"T": {"type": "DT_FLOAT"}, "Tdim": {"type": "DT_INT32"}}}, {"name": "Preprocessor/map/TensorArrayStack/TensorArrayGatherV3", "op": "TensorArrayGatherV3", "input": ["Preprocessor/map/TensorArray_1", "Preprocessor/map/TensorArrayStack/range", "Preprocessor/map/while/Exit_2"], "attr": {"element_shape": {"shape": {"dim": [{"size": "300"}, {"size": "300"}, {"size": "3"}]}}, "dtype": {"type": "DT_FLOAT"}}}, {"name": "Preprocessor/map/while/NextIteration", "op": "NextIteration", "input": ["Preprocessor/map/while/add"], "attr": {"T": {"type": "DT_INT32"}}}, {"name": "Preprocessor/map/while/NextIteration_1", "op": "NextIteration", "input": ["Preprocessor/map/while/add_1"], "attr": {"T": {"type": "DT_INT32"}}}, {"name": "Preprocessor/map/while/ResizeImage/resize/ResizeBilinear", "op": "ResizeBilinear", "input": ["Preprocessor/map/while/ResizeImage/resize/ExpandDims", "Preprocessor/map/while/ResizeImage/stack"], "attr": {"T": {"type": "DT_FLOAT"}, "align_corners": {"b": false}, "half_pixel_centers": {"b": false}}}, {"name": "FeatureExtractor/MobilenetV1/MobilenetV1/Conv2d_0/Conv2D_Fold", "op": "Conv2D", "input": ["Preprocessor/map/TensorArrayStack/TensorArrayGatherV3", "FeatureExtractor/MobilenetV1/MobilenetV1/Conv2d_0/weights_quant/FakeQuantWithMinMaxVars"], "device": "/device:CPU:0", "attr": {"dilations": {"list": {"i": ["1", "1", "1", "1"]}}, "strides": {"list": {"i": ["1", "2", "2", "1"]}}, "use_cudnn_on_gpu": {"b": true}, "padding": {"s": "U0FNRQ=="}, "data_format": {"s": "TkhXQw=="}, "explicit_paddings": {"list": {}}, "T": {"type": "DT_FLOAT"}}}, {"name": "Preprocessor/map/while/ResizeImage/resize/Squeeze", "op": "Squeeze", "input": ["Preprocessor/map/while/ResizeImage/resize/ResizeBilinear"], "attr": {"squeeze_dims": {"list": {"i": ["0"]}}, "T": {"type": "DT_FLOAT"}}}, {"name": "FeatureExtractor/MobilenetV1/MobilenetV1/Conv2d_0/add_fold", "op": "Add", "input": ["FeatureExtractor/MobilenetV1/MobilenetV1/Conv2d_0/BatchNorm_Fold/bias", "FeatureExtractor/MobilenetV1/MobilenetV1/Conv2d_0/Conv2D_Fold"], "attr": {"T": {"type": "DT_FLOAT"}}}, {"name": "Preprocessor/map/while/TensorArrayWrite/TensorArrayWriteV3", "op": "TensorArrayWriteV3", "input": ["Preprocessor/map/while/TensorArrayWrite/TensorArrayWriteV3/Enter", "Preprocessor/map/while/Switch_1:1", "Preprocessor/map/while/ResizeImage/resize/Squeeze", "Preprocessor/map/while/Switch_2:1"], "attr": {"T": {"type": "DT_FLOAT"}}}, {"name": "FeatureExtractor/MobilenetV1/MobilenetV1/Conv2d_0/Relu6", "op": "Relu6", "input": ["FeatureExtractor/MobilenetV1/MobilenetV1/Conv2d_0/add_fold"], "attr": {"T": {"type": "DT_FLOAT"}}}, {"name": "Preprocessor/map/while/NextIteration_2", "op": "NextIteration", "input": ["Preprocessor/map/while/TensorArrayWrite/TensorArrayWriteV3"], "attr": {"T": {"type": "DT_FLOAT"}}}, {"name": "FeatureExtractor/MobilenetV1/MobilenetV1/Conv2d_0/act_quant/FakeQuantWithMinMaxVars", "op": "FakeQuantWithMinMaxVars", "input": ["FeatureExtractor/MobilenetV1/MobilenetV1/Conv2d_0/Relu6", "FeatureExtractor/MobilenetV1/MobilenetV1/Conv2d_11_pointwise/act_quant/min", "FeatureExtractor/MobilenetV1/MobilenetV1/Conv2d_0/act_quant/max"], "attr": {"narrow_range": {"b": false}, "num_bits": {"i": "8"}}}, {"name": "FeatureExtractor/MobilenetV1/MobilenetV1/Conv2d_1_depthwise/depthwise_Fold", "op": "DepthwiseConv2dNative", "input": ["FeatureExtractor/MobilenetV1/MobilenetV1/Conv2d_0/act_quant/FakeQuantWithMinMaxVars", "FeatureExtractor/MobilenetV1/MobilenetV1/Conv2d_1_depthwise/weights_quant/FakeQuantWithMinMaxVars"], "attr": {"T": {"type": "DT_FLOAT"}, "strides": {"list": {"i": ["1", "1", "1", "1"]}}, "padding": {"s": "U0FNRQ=="}, "data_format": {"s": "TkhXQw=="}, "dilations": {"list": {"i": ["1", "1", "1", "1"]}}}}, {"name": "FeatureExtractor/MobilenetV1/MobilenetV1/Conv2d_1_depthwise/add_fold", "op": "Add", "input": ["FeatureExtractor/MobilenetV1/MobilenetV1/Conv2d_1_depthwise/BatchNorm_Fold/bias", "FeatureExtractor/MobilenetV1/MobilenetV1/Conv2d_1_depthwise/depthwise_Fold"], "attr": {"T": {"type": "DT_FLOAT"}}}, {"name": "FeatureExtractor/MobilenetV1/MobilenetV1/Conv2d_1_depthwise/Relu6", "op": "Relu6", "input": ["FeatureExtractor/MobilenetV1/MobilenetV1/Conv2d_1_depthwise/add_fold"], "attr": {"T": {"type": "DT_FLOAT"}}}, {"name": "FeatureExtractor/MobilenetV1/MobilenetV1/Conv2d_1_depthwise/act_quant/FakeQuantWithMinMaxVars", "op": "FakeQuantWithMinMaxVars", "input": ["FeatureExtractor/MobilenetV1/MobilenetV1/Conv2d_1_depthwise/Relu6", "FeatureExtractor/MobilenetV1/MobilenetV1/Conv2d_11_pointwise/act_quant/min", "FeatureExtractor/MobilenetV1/MobilenetV1/Conv2d_1_depthwise/act_quant/max"], "attr": {"num_bits": {"i": "8"}, "narrow_range": {"b": false}}}, {"name": "FeatureExtractor/MobilenetV1/MobilenetV1/Conv2d_1_pointwise/Conv2D_Fold", "op": "Conv2D", "input": ["FeatureExtractor/MobilenetV1/MobilenetV1/Conv2d_1_depthwise/act_quant/FakeQuantWithMinMaxVars", "FeatureExtractor/MobilenetV1/MobilenetV1/Conv2d_1_pointwise/weights_quant/FakeQuantWithMinMaxVars"], "device": "/device:CPU:0", "attr": {"data_format": {"s": "TkhXQw=="}, "use_cudnn_on_gpu": {"b": true}, "padding": {"s": "U0FNRQ=="}, "T": {"type": "DT_FLOAT"}, "strides": {"list": {"i": ["1", "1", "1", "1"]}}, "explicit_paddings": {"list": {}}, "dilations": {"list": {"i": ["1", "1", "1", "1"]}}}}, {"name": "FeatureExtractor/MobilenetV1/MobilenetV1/Conv2d_1_pointwise/add_fold", "op": "Add", "input": ["FeatureExtractor/MobilenetV1/MobilenetV1/Conv2d_1_pointwise/BatchNorm_Fold/bias", "FeatureExtractor/MobilenetV1/MobilenetV1/Conv2d_1_pointwise/Conv2D_Fold"], "attr": {"T": {"type": "DT_FLOAT"}}}, {"name": "FeatureExtractor/MobilenetV1/MobilenetV1/Conv2d_1_pointwise/Relu6", "op": "Relu6", "input": ["FeatureExtractor/MobilenetV1/MobilenetV1/Conv2d_1_pointwise/add_fold"], "attr": {"T": {"type": "DT_FLOAT"}}}, {"name": "FeatureExtractor/MobilenetV1/MobilenetV1/Conv2d_1_pointwise/act_quant/FakeQuantWithMinMaxVars", "op": "FakeQuantWithMinMaxVars", "input": ["FeatureExtractor/MobilenetV1/MobilenetV1/Conv2d_1_pointwise/Relu6", "FeatureExtractor/MobilenetV1/MobilenetV1/Conv2d_11_pointwise/act_quant/min", "FeatureExtractor/MobilenetV1/MobilenetV1/Conv2d_1_pointwise/act_quant/max"], "attr": {"narrow_range": {"b": false}, "num_bits": {"i": "8"}}}, {"name": "FeatureExtractor/MobilenetV1/MobilenetV1/Conv2d_2_depthwise/depthwise_Fold", "op": "DepthwiseConv2dNative", "input": ["FeatureExtractor/MobilenetV1/MobilenetV1/Conv2d_1_pointwise/act_quant/FakeQuantWithMinMaxVars", "FeatureExtractor/MobilenetV1/MobilenetV1/Conv2d_2_depthwise/weights_quant/FakeQuantWithMinMaxVars"], "attr": {"dilations": {"list": {"i": ["1", "1", "1", "1"]}}, "padding": {"s": "U0FNRQ=="}, "data_format": {"s": "TkhXQw=="}, "T": {"type": "DT_FLOAT"}, "strides": {"list": {"i": ["1", "2", "2", "1"]}}}}, {"name": "FeatureExtractor/MobilenetV1/MobilenetV1/Conv2d_2_depthwise/add_fold", "op": "Add", "input": ["FeatureExtractor/MobilenetV1/MobilenetV1/Conv2d_2_depthwise/BatchNorm_Fold/bias", "FeatureExtractor/MobilenetV1/MobilenetV1/Conv2d_2_depthwise/depthwise_Fold"], "attr": {"T": {"type": "DT_FLOAT"}}}, {"name": "FeatureExtractor/MobilenetV1/MobilenetV1/Conv2d_2_depthwise/Relu6", "op": "Relu6", "input": ["FeatureExtractor/MobilenetV1/MobilenetV1/Conv2d_2_depthwise/add_fold"], "attr": {"T": {"type": "DT_FLOAT"}}}, {"name": "FeatureExtractor/MobilenetV1/MobilenetV1/Conv2d_2_depthwise/act_quant/FakeQuantWithMinMaxVars", "op": "FakeQuantWithMinMaxVars", "input": ["FeatureExtractor/MobilenetV1/MobilenetV1/Conv2d_2_depthwise/Relu6", "FeatureExtractor/MobilenetV1/MobilenetV1/Conv2d_11_pointwise/act_quant/min", "FeatureExtractor/MobilenetV1/MobilenetV1/Conv2d_2_depthwise/act_quant/max"], "attr": {"num_bits": {"i": "8"}, "narrow_range": {"b": false}}}, {"name": "FeatureExtractor/MobilenetV1/MobilenetV1/Conv2d_2_pointwise/Conv2D_Fold", "op": "Conv2D", "input": ["FeatureExtractor/MobilenetV1/MobilenetV1/Conv2d_2_depthwise/act_quant/FakeQuantWithMinMaxVars", "FeatureExtractor/MobilenetV1/MobilenetV1/Conv2d_2_pointwise/weights_quant/FakeQuantWithMinMaxVars"], "device": "/device:CPU:0", "attr": {"use_cudnn_on_gpu": {"b": true}, "T": {"type": "DT_FLOAT"}, "data_format": {"s": "TkhXQw=="}, "explicit_paddings": {"list": {}}, "dilations": {"list": {"i": ["1", "1", "1", "1"]}}, "strides": {"list": {"i": ["1", "1", "1", "1"]}}, "padding": {"s": "U0FNRQ=="}}}, {"name": "FeatureExtractor/MobilenetV1/MobilenetV1/Conv2d_2_pointwise/add_fold", "op": "Add", "input": ["FeatureExtractor/MobilenetV1/MobilenetV1/Conv2d_2_pointwise/BatchNorm_Fold/bias", "FeatureExtractor/MobilenetV1/MobilenetV1/Conv2d_2_pointwise/Conv2D_Fold"], "attr": {"T": {"type": "DT_FLOAT"}}}, {"name": "FeatureExtractor/MobilenetV1/MobilenetV1/Conv2d_2_pointwise/Relu6", "op": "Relu6", "input": ["FeatureExtractor/MobilenetV1/MobilenetV1/Conv2d_2_pointwise/add_fold"], "attr": {"T": {"type": "DT_FLOAT"}}}, {"name": "FeatureExtractor/MobilenetV1/MobilenetV1/Conv2d_2_pointwise/act_quant/FakeQuantWithMinMaxVars", "op": "FakeQuantWithMinMaxVars", "input": ["FeatureExtractor/MobilenetV1/MobilenetV1/Conv2d_2_pointwise/Relu6", "FeatureExtractor/MobilenetV1/MobilenetV1/Conv2d_11_pointwise/act_quant/min", "FeatureExtractor/MobilenetV1/MobilenetV1/Conv2d_2_pointwise/act_quant/max"], "attr": {"narrow_range": {"b": false}, "num_bits": {"i": "8"}}}, {"name": "FeatureExtractor/MobilenetV1/MobilenetV1/Conv2d_3_depthwise/depthwise_Fold", "op": "DepthwiseConv2dNative", "input": ["FeatureExtractor/MobilenetV1/MobilenetV1/Conv2d_2_pointwise/act_quant/FakeQuantWithMinMaxVars", "FeatureExtractor/MobilenetV1/MobilenetV1/Conv2d_3_depthwise/weights_quant/FakeQuantWithMinMaxVars"], "attr": {"padding": {"s": "U0FNRQ=="}, "dilations": {"list": {"i": ["1", "1", "1", "1"]}}, "T": {"type": "DT_FLOAT"}, "data_format": {"s": "TkhXQw=="}, "strides": {"list": {"i": ["1", "1", "1", "1"]}}}}, {"name": "FeatureExtractor/MobilenetV1/MobilenetV1/Conv2d_3_depthwise/add_fold", "op": "Add", "input": ["FeatureExtractor/MobilenetV1/MobilenetV1/Conv2d_3_depthwise/BatchNorm_Fold/bias", "FeatureExtractor/MobilenetV1/MobilenetV1/Conv2d_3_depthwise/depthwise_Fold"], "attr": {"T": {"type": "DT_FLOAT"}}}, {"name": "FeatureExtractor/MobilenetV1/MobilenetV1/Conv2d_3_depthwise/Relu6", "op": "Relu6", "input": ["FeatureExtractor/MobilenetV1/MobilenetV1/Conv2d_3_depthwise/add_fold"], "attr": {"T": {"type": "DT_FLOAT"}}}, {"name": "FeatureExtractor/MobilenetV1/MobilenetV1/Conv2d_3_depthwise/act_quant/FakeQuantWithMinMaxVars", "op": "FakeQuantWithMinMaxVars", "input": ["FeatureExtractor/MobilenetV1/MobilenetV1/Conv2d_3_depthwise/Relu6", "FeatureExtractor/MobilenetV1/MobilenetV1/Conv2d_11_pointwise/act_quant/min", "FeatureExtractor/MobilenetV1/MobilenetV1/Conv2d_3_depthwise/act_quant/max"], "attr": {"num_bits": {"i": "8"}, "narrow_range": {"b": false}}}, {"name": "FeatureExtractor/MobilenetV1/MobilenetV1/Conv2d_3_pointwise/Conv2D_Fold", "op": "Conv2D", "input": ["FeatureExtractor/MobilenetV1/MobilenetV1/Conv2d_3_depthwise/act_quant/FakeQuantWithMinMaxVars", "FeatureExtractor/MobilenetV1/MobilenetV1/Conv2d_3_pointwise/weights_quant/FakeQuantWithMinMaxVars"], "device": "/device:CPU:0", "attr": {"explicit_paddings": {"list": {}}, "T": {"type": "DT_FLOAT"}, "use_cudnn_on_gpu": {"b": true}, "padding": {"s": "U0FNRQ=="}, "strides": {"list": {"i": ["1", "1", "1", "1"]}}, "dilations": {"list": {"i": ["1", "1", "1", "1"]}}, "data_format": {"s": "TkhXQw=="}}}, {"name": "FeatureExtractor/MobilenetV1/MobilenetV1/Conv2d_3_pointwise/add_fold", "op": "Add", "input": ["FeatureExtractor/MobilenetV1/MobilenetV1/Conv2d_3_pointwise/BatchNorm_Fold/bias", "FeatureExtractor/MobilenetV1/MobilenetV1/Conv2d_3_pointwise/Conv2D_Fold"], "attr": {"T": {"type": "DT_FLOAT"}}}, {"name": "FeatureExtractor/MobilenetV1/MobilenetV1/Conv2d_3_pointwise/Relu6", "op": "Relu6", "input": ["FeatureExtractor/MobilenetV1/MobilenetV1/Conv2d_3_pointwise/add_fold"], "attr": {"T": {"type": "DT_FLOAT"}}}, {"name": "FeatureExtractor/MobilenetV1/MobilenetV1/Conv2d_3_pointwise/act_quant/FakeQuantWithMinMaxVars", "op": "FakeQuantWithMinMaxVars", "input": ["FeatureExtractor/MobilenetV1/MobilenetV1/Conv2d_3_pointwise/Relu6", "FeatureExtractor/MobilenetV1/MobilenetV1/Conv2d_11_pointwise/act_quant/min", "FeatureExtractor/MobilenetV1/MobilenetV1/Conv2d_3_pointwise/act_quant/max"], "attr": {"narrow_range": {"b": false}, "num_bits": {"i": "8"}}}, {"name": "FeatureExtractor/MobilenetV1/MobilenetV1/Conv2d_4_depthwise/depthwise_Fold", "op": "DepthwiseConv2dNative", "input": ["FeatureExtractor/MobilenetV1/MobilenetV1/Conv2d_3_pointwise/act_quant/FakeQuantWithMinMaxVars", "FeatureExtractor/MobilenetV1/MobilenetV1/Conv2d_4_depthwise/weights_quant/FakeQuantWithMinMaxVars"], "attr": {"dilations": {"list": {"i": ["1", "1", "1", "1"]}}, "T": {"type": "DT_FLOAT"}, "strides": {"list": {"i": ["1", "2", "2", "1"]}}, "data_format": {"s": "TkhXQw=="}, "padding": {"s": "U0FNRQ=="}}}, {"name": "FeatureExtractor/MobilenetV1/MobilenetV1/Conv2d_4_depthwise/add_fold", "op": "Add", "input": ["FeatureExtractor/MobilenetV1/MobilenetV1/Conv2d_4_depthwise/BatchNorm_Fold/bias", "FeatureExtractor/MobilenetV1/MobilenetV1/Conv2d_4_depthwise/depthwise_Fold"], "attr": {"T": {"type": "DT_FLOAT"}}}, {"name": "FeatureExtractor/MobilenetV1/MobilenetV1/Conv2d_4_depthwise/Relu6", "op": "Relu6", "input": ["FeatureExtractor/MobilenetV1/MobilenetV1/Conv2d_4_depthwise/add_fold"], "attr": {"T": {"type": "DT_FLOAT"}}}, {"name": "FeatureExtractor/MobilenetV1/MobilenetV1/Conv2d_4_depthwise/act_quant/FakeQuantWithMinMaxVars", "op": "FakeQuantWithMinMaxVars", "input": ["FeatureExtractor/MobilenetV1/MobilenetV1/Conv2d_4_depthwise/Relu6", "FeatureExtractor/MobilenetV1/MobilenetV1/Conv2d_11_pointwise/act_quant/min", "FeatureExtractor/MobilenetV1/MobilenetV1/Conv2d_4_depthwise/act_quant/max"], "attr": {"narrow_range": {"b": false}, "num_bits": {"i": "8"}}}, {"name": "FeatureExtractor/MobilenetV1/MobilenetV1/Conv2d_4_pointwise/Conv2D_Fold", "op": "Conv2D", "input": ["FeatureExtractor/MobilenetV1/MobilenetV1/Conv2d_4_depthwise/act_quant/FakeQuantWithMinMaxVars", "FeatureExtractor/MobilenetV1/MobilenetV1/Conv2d_4_pointwise/weights_quant/FakeQuantWithMinMaxVars"], "device": "/device:CPU:0", "attr": {"use_cudnn_on_gpu": {"b": true}, "padding": {"s": "U0FNRQ=="}, "data_format": {"s": "TkhXQw=="}, "dilations": {"list": {"i": ["1", "1", "1", "1"]}}, "T": {"type": "DT_FLOAT"}, "strides": {"list": {"i": ["1", "1", "1", "1"]}}, "explicit_paddings": {"list": {}}}}, {"name": "FeatureExtractor/MobilenetV1/MobilenetV1/Conv2d_4_pointwise/add_fold", "op": "Add", "input": ["FeatureExtractor/MobilenetV1/MobilenetV1/Conv2d_4_pointwise/BatchNorm_Fold/bias", "FeatureExtractor/MobilenetV1/MobilenetV1/Conv2d_4_pointwise/Conv2D_Fold"], "attr": {"T": {"type": "DT_FLOAT"}}}, {"name": "FeatureExtractor/MobilenetV1/MobilenetV1/Conv2d_4_pointwise/Relu6", "op": "Relu6", "input": ["FeatureExtractor/MobilenetV1/MobilenetV1/Conv2d_4_pointwise/add_fold"], "attr": {"T": {"type": "DT_FLOAT"}}}, {"name": "FeatureExtractor/MobilenetV1/MobilenetV1/Conv2d_4_pointwise/act_quant/FakeQuantWithMinMaxVars", "op": "FakeQuantWithMinMaxVars", "input": ["FeatureExtractor/MobilenetV1/MobilenetV1/Conv2d_4_pointwise/Relu6", "FeatureExtractor/MobilenetV1/MobilenetV1/Conv2d_11_pointwise/act_quant/min", "FeatureExtractor/MobilenetV1/MobilenetV1/Conv2d_4_pointwise/act_quant/max"], "attr": {"num_bits": {"i": "8"}, "narrow_range": {"b": false}}}, {"name": "FeatureExtractor/MobilenetV1/MobilenetV1/Conv2d_5_depthwise/depthwise_Fold", "op": "DepthwiseConv2dNative", "input": ["FeatureExtractor/MobilenetV1/MobilenetV1/Conv2d_4_pointwise/act_quant/FakeQuantWithMinMaxVars", "FeatureExtractor/MobilenetV1/MobilenetV1/Conv2d_5_depthwise/weights_quant/FakeQuantWithMinMaxVars"], "attr": {"T": {"type": "DT_FLOAT"}, "strides": {"list": {"i": ["1", "1", "1", "1"]}}, "dilations": {"list": {"i": ["1", "1", "1", "1"]}}, "padding": {"s": "U0FNRQ=="}, "data_format": {"s": "TkhXQw=="}}}, {"name": "FeatureExtractor/MobilenetV1/MobilenetV1/Conv2d_5_depthwise/add_fold", "op": "Add", "input": ["FeatureExtractor/MobilenetV1/MobilenetV1/Conv2d_5_depthwise/BatchNorm_Fold/bias", "FeatureExtractor/MobilenetV1/MobilenetV1/Conv2d_5_depthwise/depthwise_Fold"], "attr": {"T": {"type": "DT_FLOAT"}}}, {"name": "FeatureExtractor/MobilenetV1/MobilenetV1/Conv2d_5_depthwise/Relu6", "op": "Relu6", "input": ["FeatureExtractor/MobilenetV1/MobilenetV1/Conv2d_5_depthwise/add_fold"], "attr": {"T": {"type": "DT_FLOAT"}}}, {"name": "FeatureExtractor/MobilenetV1/MobilenetV1/Conv2d_5_depthwise/act_quant/FakeQuantWithMinMaxVars", "op": "FakeQuantWithMinMaxVars", "input": ["FeatureExtractor/MobilenetV1/MobilenetV1/Conv2d_5_depthwise/Relu6", "FeatureExtractor/MobilenetV1/MobilenetV1/Conv2d_11_pointwise/act_quant/min", "FeatureExtractor/MobilenetV1/MobilenetV1/Conv2d_11_pointwise/act_quant/max"], "attr": {"num_bits": {"i": "8"}, "narrow_range": {"b": false}}}, {"name": "FeatureExtractor/MobilenetV1/MobilenetV1/Conv2d_5_pointwise/Conv2D_Fold", "op": "Conv2D", "input": ["FeatureExtractor/MobilenetV1/MobilenetV1/Conv2d_5_depthwise/act_quant/FakeQuantWithMinMaxVars", "FeatureExtractor/MobilenetV1/MobilenetV1/Conv2d_5_pointwise/weights_quant/FakeQuantWithMinMaxVars"], "device": "/device:CPU:0", "attr": {"padding": {"s": "U0FNRQ=="}, "data_format": {"s": "TkhXQw=="}, "use_cudnn_on_gpu": {"b": true}, "T": {"type": "DT_FLOAT"}, "strides": {"list": {"i": ["1", "1", "1", "1"]}}, "explicit_paddings": {"list": {}}, "dilations": {"list": {"i": ["1", "1", "1", "1"]}}}}, {"name": "FeatureExtractor/MobilenetV1/MobilenetV1/Conv2d_5_pointwise/add_fold", "op": "Add", "input": ["FeatureExtractor/MobilenetV1/MobilenetV1/Conv2d_5_pointwise/BatchNorm_Fold/bias", "FeatureExtractor/MobilenetV1/MobilenetV1/Conv2d_5_pointwise/Conv2D_Fold"], "attr": {"T": {"type": "DT_FLOAT"}}}, {"name": "FeatureExtractor/MobilenetV1/MobilenetV1/Conv2d_5_pointwise/Relu6", "op": "Relu6", "input": ["FeatureExtractor/MobilenetV1/MobilenetV1/Conv2d_5_pointwise/add_fold"], "attr": {"T": {"type": "DT_FLOAT"}}}, {"name": "FeatureExtractor/MobilenetV1/MobilenetV1/Conv2d_5_pointwise/act_quant/FakeQuantWithMinMaxVars", "op": "FakeQuantWithMinMaxVars", "input": ["FeatureExtractor/MobilenetV1/MobilenetV1/Conv2d_5_pointwise/Relu6", "FeatureExtractor/MobilenetV1/MobilenetV1/Conv2d_11_pointwise/act_quant/min", "FeatureExtractor/MobilenetV1/MobilenetV1/Conv2d_5_pointwise/act_quant/max"], "attr": {"num_bits": {"i": "8"}, "narrow_range": {"b": false}}}, {"name": "FeatureExtractor/MobilenetV1/MobilenetV1/Conv2d_6_depthwise/depthwise_Fold", "op": "DepthwiseConv2dNative", "input": ["FeatureExtractor/MobilenetV1/MobilenetV1/Conv2d_5_pointwise/act_quant/FakeQuantWithMinMaxVars", "FeatureExtractor/MobilenetV1/MobilenetV1/Conv2d_6_depthwise/weights_quant/FakeQuantWithMinMaxVars"], "attr": {"strides": {"list": {"i": ["1", "2", "2", "1"]}}, "data_format": {"s": "TkhXQw=="}, "padding": {"s": "U0FNRQ=="}, "T": {"type": "DT_FLOAT"}, "dilations": {"list": {"i": ["1", "1", "1", "1"]}}}}, {"name": "FeatureExtractor/MobilenetV1/MobilenetV1/Conv2d_6_depthwise/add_fold", "op": "Add", "input": ["FeatureExtractor/MobilenetV1/MobilenetV1/Conv2d_6_depthwise/BatchNorm_Fold/bias", "FeatureExtractor/MobilenetV1/MobilenetV1/Conv2d_6_depthwise/depthwise_Fold"], "attr": {"T": {"type": "DT_FLOAT"}}}, {"name": "FeatureExtractor/MobilenetV1/MobilenetV1/Conv2d_6_depthwise/Relu6", "op": "Relu6", "input": ["FeatureExtractor/MobilenetV1/MobilenetV1/Conv2d_6_depthwise/add_fold"], "attr": {"T": {"type": "DT_FLOAT"}}}, {"name": "FeatureExtractor/MobilenetV1/MobilenetV1/Conv2d_6_depthwise/act_quant/FakeQuantWithMinMaxVars", "op": "FakeQuantWithMinMaxVars", "input": ["FeatureExtractor/MobilenetV1/MobilenetV1/Conv2d_6_depthwise/Relu6", "FeatureExtractor/MobilenetV1/MobilenetV1/Conv2d_11_pointwise/act_quant/min", "FeatureExtractor/MobilenetV1/MobilenetV1/Conv2d_11_pointwise/act_quant/max"], "attr": {"num_bits": {"i": "8"}, "narrow_range": {"b": false}}}, {"name": "FeatureExtractor/MobilenetV1/MobilenetV1/Conv2d_6_pointwise/Conv2D_Fold", "op": "Conv2D", "input": ["FeatureExtractor/MobilenetV1/MobilenetV1/Conv2d_6_depthwise/act_quant/FakeQuantWithMinMaxVars", "FeatureExtractor/MobilenetV1/MobilenetV1/Conv2d_6_pointwise/weights_quant/FakeQuantWithMinMaxVars"], "device": "/device:CPU:0", "attr": {"T": {"type": "DT_FLOAT"}, "explicit_paddings": {"list": {}}, "data_format": {"s": "TkhXQw=="}, "dilations": {"list": {"i": ["1", "1", "1", "1"]}}, "strides": {"list": {"i": ["1", "1", "1", "1"]}}, "padding": {"s": "U0FNRQ=="}, "use_cudnn_on_gpu": {"b": true}}}, {"name": "FeatureExtractor/MobilenetV1/MobilenetV1/Conv2d_6_pointwise/add_fold", "op": "Add", "input": ["FeatureExtractor/MobilenetV1/MobilenetV1/Conv2d_6_pointwise/BatchNorm_Fold/bias", "FeatureExtractor/MobilenetV1/MobilenetV1/Conv2d_6_pointwise/Conv2D_Fold"], "attr": {"T": {"type": "DT_FLOAT"}}}, {"name": "FeatureExtractor/MobilenetV1/MobilenetV1/Conv2d_6_pointwise/Relu6", "op": "Relu6", "input": ["FeatureExtractor/MobilenetV1/MobilenetV1/Conv2d_6_pointwise/add_fold"], "attr": {"T": {"type": "DT_FLOAT"}}}, {"name": "FeatureExtractor/MobilenetV1/MobilenetV1/Conv2d_6_pointwise/act_quant/FakeQuantWithMinMaxVars", "op": "FakeQuantWithMinMaxVars", "input": ["FeatureExtractor/MobilenetV1/MobilenetV1/Conv2d_6_pointwise/Relu6", "FeatureExtractor/MobilenetV1/MobilenetV1/Conv2d_11_pointwise/act_quant/min", "FeatureExtractor/MobilenetV1/MobilenetV1/Conv2d_6_pointwise/act_quant/max"], "attr": {"num_bits": {"i": "8"}, "narrow_range": {"b": false}}}, {"name": "FeatureExtractor/MobilenetV1/MobilenetV1/Conv2d_7_depthwise/depthwise_Fold", "op": "DepthwiseConv2dNative", "input": ["FeatureExtractor/MobilenetV1/MobilenetV1/Conv2d_6_pointwise/act_quant/FakeQuantWithMinMaxVars", "FeatureExtractor/MobilenetV1/MobilenetV1/Conv2d_7_depthwise/weights_quant/FakeQuantWithMinMaxVars"], "attr": {"T": {"type": "DT_FLOAT"}, "data_format": {"s": "TkhXQw=="}, "padding": {"s": "U0FNRQ=="}, "strides": {"list": {"i": ["1", "1", "1", "1"]}}, "dilations": {"list": {"i": ["1", "1", "1", "1"]}}}}, {"name": "FeatureExtractor/MobilenetV1/MobilenetV1/Conv2d_7_depthwise/add_fold", "op": "Add", "input": ["FeatureExtractor/MobilenetV1/MobilenetV1/Conv2d_7_depthwise/BatchNorm_Fold/bias", "FeatureExtractor/MobilenetV1/MobilenetV1/Conv2d_7_depthwise/depthwise_Fold"], "attr": {"T": {"type": "DT_FLOAT"}}}, {"name": "FeatureExtractor/MobilenetV1/MobilenetV1/Conv2d_7_depthwise/Relu6", "op": "Relu6", "input": ["FeatureExtractor/MobilenetV1/MobilenetV1/Conv2d_7_depthwise/add_fold"], "attr": {"T": {"type": "DT_FLOAT"}}}, {"name": "FeatureExtractor/MobilenetV1/MobilenetV1/Conv2d_7_depthwise/act_quant/FakeQuantWithMinMaxVars", "op": "FakeQuantWithMinMaxVars", "input": ["FeatureExtractor/MobilenetV1/MobilenetV1/Conv2d_7_depthwise/Relu6", "FeatureExtractor/MobilenetV1/MobilenetV1/Conv2d_11_pointwise/act_quant/min", "FeatureExtractor/MobilenetV1/MobilenetV1/Conv2d_11_pointwise/act_quant/max"], "attr": {"narrow_range": {"b": false}, "num_bits": {"i": "8"}}}, {"name": "FeatureExtractor/MobilenetV1/MobilenetV1/Conv2d_7_pointwise/Conv2D_Fold", "op": "Conv2D", "input": ["FeatureExtractor/MobilenetV1/MobilenetV1/Conv2d_7_depthwise/act_quant/FakeQuantWithMinMaxVars", "FeatureExtractor/MobilenetV1/MobilenetV1/Conv2d_7_pointwise/weights_quant/FakeQuantWithMinMaxVars"], "device": "/device:CPU:0", "attr": {"explicit_paddings": {"list": {}}, "strides": {"list": {"i": ["1", "1", "1", "1"]}}, "data_format": {"s": "TkhXQw=="}, "dilations": {"list": {"i": ["1", "1", "1", "1"]}}, "padding": {"s": "U0FNRQ=="}, "T": {"type": "DT_FLOAT"}, "use_cudnn_on_gpu": {"b": true}}}, {"name": "FeatureExtractor/MobilenetV1/MobilenetV1/Conv2d_7_pointwise/add_fold", "op": "Add", "input": ["FeatureExtractor/MobilenetV1/MobilenetV1/Conv2d_7_pointwise/BatchNorm_Fold/bias", "FeatureExtractor/MobilenetV1/MobilenetV1/Conv2d_7_pointwise/Conv2D_Fold"], "attr": {"T": {"type": "DT_FLOAT"}}}, {"name": "FeatureExtractor/MobilenetV1/MobilenetV1/Conv2d_7_pointwise/Relu6", "op": "Relu6", "input": ["FeatureExtractor/MobilenetV1/MobilenetV1/Conv2d_7_pointwise/add_fold"], "attr": {"T": {"type": "DT_FLOAT"}}}, {"name": "FeatureExtractor/MobilenetV1/MobilenetV1/Conv2d_7_pointwise/act_quant/FakeQuantWithMinMaxVars", "op": "FakeQuantWithMinMaxVars", "input": ["FeatureExtractor/MobilenetV1/MobilenetV1/Conv2d_7_pointwise/Relu6", "FeatureExtractor/MobilenetV1/MobilenetV1/Conv2d_11_pointwise/act_quant/min", "FeatureExtractor/MobilenetV1/MobilenetV1/Conv2d_11_pointwise/act_quant/max"], "attr": {"num_bits": {"i": "8"}, "narrow_range": {"b": false}}}, {"name": "FeatureExtractor/MobilenetV1/MobilenetV1/Conv2d_8_depthwise/depthwise_Fold", "op": "DepthwiseConv2dNative", "input": ["FeatureExtractor/MobilenetV1/MobilenetV1/Conv2d_7_pointwise/act_quant/FakeQuantWithMinMaxVars", "FeatureExtractor/MobilenetV1/MobilenetV1/Conv2d_8_depthwise/weights_quant/FakeQuantWithMinMaxVars"], "attr": {"T": {"type": "DT_FLOAT"}, "dilations": {"list": {"i": ["1", "1", "1", "1"]}}, "data_format": {"s": "TkhXQw=="}, "strides": {"list": {"i": ["1", "1", "1", "1"]}}, "padding": {"s": "U0FNRQ=="}}}, {"name": "FeatureExtractor/MobilenetV1/MobilenetV1/Conv2d_8_depthwise/add_fold", "op": "Add", "input": ["FeatureExtractor/MobilenetV1/MobilenetV1/Conv2d_8_depthwise/BatchNorm_Fold/bias", "FeatureExtractor/MobilenetV1/MobilenetV1/Conv2d_8_depthwise/depthwise_Fold"], "attr": {"T": {"type": "DT_FLOAT"}}}, {"name": "FeatureExtractor/MobilenetV1/MobilenetV1/Conv2d_8_depthwise/Relu6", "op": "Relu6", "input": ["FeatureExtractor/MobilenetV1/MobilenetV1/Conv2d_8_depthwise/add_fold"], "attr": {"T": {"type": "DT_FLOAT"}}}, {"name": "FeatureExtractor/MobilenetV1/MobilenetV1/Conv2d_8_depthwise/act_quant/FakeQuantWithMinMaxVars", "op": "FakeQuantWithMinMaxVars", "input": ["FeatureExtractor/MobilenetV1/MobilenetV1/Conv2d_8_depthwise/Relu6", "FeatureExtractor/MobilenetV1/MobilenetV1/Conv2d_11_pointwise/act_quant/min", "FeatureExtractor/MobilenetV1/MobilenetV1/Conv2d_11_pointwise/act_quant/max"], "attr": {"narrow_range": {"b": false}, "num_bits": {"i": "8"}}}, {"name": "FeatureExtractor/MobilenetV1/MobilenetV1/Conv2d_8_pointwise/Conv2D_Fold", "op": "Conv2D", "input": ["FeatureExtractor/MobilenetV1/MobilenetV1/Conv2d_8_depthwise/act_quant/FakeQuantWithMinMaxVars", "FeatureExtractor/MobilenetV1/MobilenetV1/Conv2d_8_pointwise/weights_quant/FakeQuantWithMinMaxVars"], "device": "/device:CPU:0", "attr": {"data_format": {"s": "TkhXQw=="}, "strides": {"list": {"i": ["1", "1", "1", "1"]}}, "explicit_paddings": {"list": {}}, "use_cudnn_on_gpu": {"b": true}, "dilations": {"list": {"i": ["1", "1", "1", "1"]}}, "T": {"type": "DT_FLOAT"}, "padding": {"s": "U0FNRQ=="}}}, {"name": "FeatureExtractor/MobilenetV1/MobilenetV1/Conv2d_8_pointwise/add_fold", "op": "Add", "input": ["FeatureExtractor/MobilenetV1/MobilenetV1/Conv2d_8_pointwise/BatchNorm_Fold/bias", "FeatureExtractor/MobilenetV1/MobilenetV1/Conv2d_8_pointwise/Conv2D_Fold"], "attr": {"T": {"type": "DT_FLOAT"}}}, {"name": "FeatureExtractor/MobilenetV1/MobilenetV1/Conv2d_8_pointwise/Relu6", "op": "Relu6", "input": ["FeatureExtractor/MobilenetV1/MobilenetV1/Conv2d_8_pointwise/add_fold"], "attr": {"T": {"type": "DT_FLOAT"}}}, {"name": "FeatureExtractor/MobilenetV1/MobilenetV1/Conv2d_8_pointwise/act_quant/FakeQuantWithMinMaxVars", "op": "FakeQuantWithMinMaxVars", "input": ["FeatureExtractor/MobilenetV1/MobilenetV1/Conv2d_8_pointwise/Relu6", "FeatureExtractor/MobilenetV1/MobilenetV1/Conv2d_11_pointwise/act_quant/min", "FeatureExtractor/MobilenetV1/MobilenetV1/Conv2d_11_pointwise/act_quant/max"], "attr": {"num_bits": {"i": "8"}, "narrow_range": {"b": false}}}, {"name": "FeatureExtractor/MobilenetV1/MobilenetV1/Conv2d_9_depthwise/depthwise_Fold", "op": "DepthwiseConv2dNative", "input": ["FeatureExtractor/MobilenetV1/MobilenetV1/Conv2d_8_pointwise/act_quant/FakeQuantWithMinMaxVars", "FeatureExtractor/MobilenetV1/MobilenetV1/Conv2d_9_depthwise/weights_quant/FakeQuantWithMinMaxVars"], "attr": {"T": {"type": "DT_FLOAT"}, "strides": {"list": {"i": ["1", "1", "1", "1"]}}, "data_format": {"s": "TkhXQw=="}, "padding": {"s": "U0FNRQ=="}, "dilations": {"list": {"i": ["1", "1", "1", "1"]}}}}, {"name": "FeatureExtractor/MobilenetV1/MobilenetV1/Conv2d_9_depthwise/add_fold", "op": "Add", "input": ["FeatureExtractor/MobilenetV1/MobilenetV1/Conv2d_9_depthwise/BatchNorm_Fold/bias", "FeatureExtractor/MobilenetV1/MobilenetV1/Conv2d_9_depthwise/depthwise_Fold"], "attr": {"T": {"type": "DT_FLOAT"}}}, {"name": "FeatureExtractor/MobilenetV1/MobilenetV1/Conv2d_9_depthwise/Relu6", "op": "Relu6", "input": ["FeatureExtractor/MobilenetV1/MobilenetV1/Conv2d_9_depthwise/add_fold"], "attr": {"T": {"type": "DT_FLOAT"}}}, {"name": "FeatureExtractor/MobilenetV1/MobilenetV1/Conv2d_9_depthwise/act_quant/FakeQuantWithMinMaxVars", "op": "FakeQuantWithMinMaxVars", "input": ["FeatureExtractor/MobilenetV1/MobilenetV1/Conv2d_9_depthwise/Relu6", "FeatureExtractor/MobilenetV1/MobilenetV1/Conv2d_11_pointwise/act_quant/min", "FeatureExtractor/MobilenetV1/MobilenetV1/Conv2d_11_pointwise/act_quant/max"], "attr": {"narrow_range": {"b": false}, "num_bits": {"i": "8"}}}, {"name": "FeatureExtractor/MobilenetV1/MobilenetV1/Conv2d_9_pointwise/Conv2D_Fold", "op": "Conv2D", "input": ["FeatureExtractor/MobilenetV1/MobilenetV1/Conv2d_9_depthwise/act_quant/FakeQuantWithMinMaxVars", "FeatureExtractor/MobilenetV1/MobilenetV1/Conv2d_9_pointwise/weights_quant/FakeQuantWithMinMaxVars"], "device": "/device:CPU:0", "attr": {"explicit_paddings": {"list": {}}, "strides": {"list": {"i": ["1", "1", "1", "1"]}}, "use_cudnn_on_gpu": {"b": true}, "padding": {"s": "U0FNRQ=="}, "dilations": {"list": {"i": ["1", "1", "1", "1"]}}, "T": {"type": "DT_FLOAT"}, "data_format": {"s": "TkhXQw=="}}}, {"name": "FeatureExtractor/MobilenetV1/MobilenetV1/Conv2d_9_pointwise/add_fold", "op": "Add", "input": ["FeatureExtractor/MobilenetV1/MobilenetV1/Conv2d_9_pointwise/BatchNorm_Fold/bias", "FeatureExtractor/MobilenetV1/MobilenetV1/Conv2d_9_pointwise/Conv2D_Fold"], "attr": {"T": {"type": "DT_FLOAT"}}}, {"name": "FeatureExtractor/MobilenetV1/MobilenetV1/Conv2d_9_pointwise/Relu6", "op": "Relu6", "input": ["FeatureExtractor/MobilenetV1/MobilenetV1/Conv2d_9_pointwise/add_fold"], "attr": {"T": {"type": "DT_FLOAT"}}}, {"name": "FeatureExtractor/MobilenetV1/MobilenetV1/Conv2d_9_pointwise/act_quant/FakeQuantWithMinMaxVars", "op": "FakeQuantWithMinMaxVars", "input": ["FeatureExtractor/MobilenetV1/MobilenetV1/Conv2d_9_pointwise/Relu6", "FeatureExtractor/MobilenetV1/MobilenetV1/Conv2d_11_pointwise/act_quant/min", "FeatureExtractor/MobilenetV1/MobilenetV1/Conv2d_11_pointwise/act_quant/max"], "attr": {"narrow_range": {"b": false}, "num_bits": {"i": "8"}}}, {"name": "FeatureExtractor/MobilenetV1/MobilenetV1/Conv2d_10_depthwise/depthwise_Fold", "op": "DepthwiseConv2dNative", "input": ["FeatureExtractor/MobilenetV1/MobilenetV1/Conv2d_9_pointwise/act_quant/FakeQuantWithMinMaxVars", "FeatureExtractor/MobilenetV1/MobilenetV1/Conv2d_10_depthwise/weights_quant/FakeQuantWithMinMaxVars"], "attr": {"strides": {"list": {"i": ["1", "1", "1", "1"]}}, "T": {"type": "DT_FLOAT"}, "padding": {"s": "U0FNRQ=="}, "dilations": {"list": {"i": ["1", "1", "1", "1"]}}, "data_format": {"s": "TkhXQw=="}}}, {"name": "FeatureExtractor/MobilenetV1/MobilenetV1/Conv2d_10_depthwise/add_fold", "op": "Add", "input": ["FeatureExtractor/MobilenetV1/MobilenetV1/Conv2d_10_depthwise/BatchNorm_Fold/bias", "FeatureExtractor/MobilenetV1/MobilenetV1/Conv2d_10_depthwise/depthwise_Fold"], "attr": {"T": {"type": "DT_FLOAT"}}}, {"name": "FeatureExtractor/MobilenetV1/MobilenetV1/Conv2d_10_depthwise/Relu6", "op": "Relu6", "input": ["FeatureExtractor/MobilenetV1/MobilenetV1/Conv2d_10_depthwise/add_fold"], "attr": {"T": {"type": "DT_FLOAT"}}}, {"name": "FeatureExtractor/MobilenetV1/MobilenetV1/Conv2d_10_depthwise/act_quant/FakeQuantWithMinMaxVars", "op": "FakeQuantWithMinMaxVars", "input": ["FeatureExtractor/MobilenetV1/MobilenetV1/Conv2d_10_depthwise/Relu6", "FeatureExtractor/MobilenetV1/MobilenetV1/Conv2d_11_pointwise/act_quant/min", "FeatureExtractor/MobilenetV1/MobilenetV1/Conv2d_11_pointwise/act_quant/max"], "attr": {"narrow_range": {"b": false}, "num_bits": {"i": "8"}}}, {"name": "FeatureExtractor/MobilenetV1/MobilenetV1/Conv2d_10_pointwise/Conv2D_Fold", "op": "Conv2D", "input": ["FeatureExtractor/MobilenetV1/MobilenetV1/Conv2d_10_depthwise/act_quant/FakeQuantWithMinMaxVars", "FeatureExtractor/MobilenetV1/MobilenetV1/Conv2d_10_pointwise/weights_quant/FakeQuantWithMinMaxVars"], "device": "/device:CPU:0", "attr": {"data_format": {"s": "TkhXQw=="}, "strides": {"list": {"i": ["1", "1", "1", "1"]}}, "explicit_paddings": {"list": {}}, "dilations": {"list": {"i": ["1", "1", "1", "1"]}}, "T": {"type": "DT_FLOAT"}, "use_cudnn_on_gpu": {"b": true}, "padding": {"s": "U0FNRQ=="}}}, {"name": "FeatureExtractor/MobilenetV1/MobilenetV1/Conv2d_10_pointwise/add_fold", "op": "Add", "input": ["FeatureExtractor/MobilenetV1/MobilenetV1/Conv2d_10_pointwise/BatchNorm_Fold/bias", "FeatureExtractor/MobilenetV1/MobilenetV1/Conv2d_10_pointwise/Conv2D_Fold"], "attr": {"T": {"type": "DT_FLOAT"}}}, {"name": "FeatureExtractor/MobilenetV1/MobilenetV1/Conv2d_10_pointwise/Relu6", "op": "Relu6", "input": ["FeatureExtractor/MobilenetV1/MobilenetV1/Conv2d_10_pointwise/add_fold"], "attr": {"T": {"type": "DT_FLOAT"}}}, {"name": "FeatureExtractor/MobilenetV1/MobilenetV1/Conv2d_10_pointwise/act_quant/FakeQuantWithMinMaxVars", "op": "FakeQuantWithMinMaxVars", "input": ["FeatureExtractor/MobilenetV1/MobilenetV1/Conv2d_10_pointwise/Relu6", "FeatureExtractor/MobilenetV1/MobilenetV1/Conv2d_11_pointwise/act_quant/min", "FeatureExtractor/MobilenetV1/MobilenetV1/Conv2d_11_pointwise/act_quant/max"], "attr": {"num_bits": {"i": "8"}, "narrow_range": {"b": false}}}, {"name": "FeatureExtractor/MobilenetV1/MobilenetV1/Conv2d_11_depthwise/depthwise_Fold", "op": "DepthwiseConv2dNative", "input": ["FeatureExtractor/MobilenetV1/MobilenetV1/Conv2d_10_pointwise/act_quant/FakeQuantWithMinMaxVars", "FeatureExtractor/MobilenetV1/MobilenetV1/Conv2d_11_depthwise/weights_quant/FakeQuantWithMinMaxVars"], "attr": {"strides": {"list": {"i": ["1", "1", "1", "1"]}}, "data_format": {"s": "TkhXQw=="}, "dilations": {"list": {"i": ["1", "1", "1", "1"]}}, "T": {"type": "DT_FLOAT"}, "padding": {"s": "U0FNRQ=="}}}, {"name": "FeatureExtractor/MobilenetV1/MobilenetV1/Conv2d_11_depthwise/add_fold", "op": "Add", "input": ["FeatureExtractor/MobilenetV1/MobilenetV1/Conv2d_11_depthwise/BatchNorm_Fold/bias", "FeatureExtractor/MobilenetV1/MobilenetV1/Conv2d_11_depthwise/depthwise_Fold"], "attr": {"T": {"type": "DT_FLOAT"}}}, {"name": "FeatureExtractor/MobilenetV1/MobilenetV1/Conv2d_11_depthwise/Relu6", "op": "Relu6", "input": ["FeatureExtractor/MobilenetV1/MobilenetV1/Conv2d_11_depthwise/add_fold"], "attr": {"T": {"type": "DT_FLOAT"}}}, {"name": "FeatureExtractor/MobilenetV1/MobilenetV1/Conv2d_11_depthwise/act_quant/FakeQuantWithMinMaxVars", "op": "FakeQuantWithMinMaxVars", "input": ["FeatureExtractor/MobilenetV1/MobilenetV1/Conv2d_11_depthwise/Relu6", "FeatureExtractor/MobilenetV1/MobilenetV1/Conv2d_11_pointwise/act_quant/min", "FeatureExtractor/MobilenetV1/MobilenetV1/Conv2d_11_pointwise/act_quant/max"], "attr": {"num_bits": {"i": "8"}, "narrow_range": {"b": false}}}, {"name": "FeatureExtractor/MobilenetV1/MobilenetV1/Conv2d_11_pointwise/Conv2D_Fold", "op": "Conv2D", "input": ["FeatureExtractor/MobilenetV1/MobilenetV1/Conv2d_11_depthwise/act_quant/FakeQuantWithMinMaxVars", "FeatureExtractor/MobilenetV1/MobilenetV1/Conv2d_11_pointwise/weights_quant/FakeQuantWithMinMaxVars"], "device": "/device:CPU:0", "attr": {"T": {"type": "DT_FLOAT"}, "strides": {"list": {"i": ["1", "1", "1", "1"]}}, "padding": {"s": "U0FNRQ=="}, "data_format": {"s": "TkhXQw=="}, "dilations": {"list": {"i": ["1", "1", "1", "1"]}}, "explicit_paddings": {"list": {}}, "use_cudnn_on_gpu": {"b": true}}}, {"name": "FeatureExtractor/MobilenetV1/MobilenetV1/Conv2d_11_pointwise/add_fold", "op": "Add", "input": ["FeatureExtractor/MobilenetV1/MobilenetV1/Conv2d_11_pointwise/BatchNorm_Fold/bias", "FeatureExtractor/MobilenetV1/MobilenetV1/Conv2d_11_pointwise/Conv2D_Fold"], "attr": {"T": {"type": "DT_FLOAT"}}}, {"name": "FeatureExtractor/MobilenetV1/MobilenetV1/Conv2d_11_pointwise/Relu6", "op": "Relu6", "input": ["FeatureExtractor/MobilenetV1/MobilenetV1/Conv2d_11_pointwise/add_fold"], "attr": {"T": {"type": "DT_FLOAT"}}}, {"name": "FeatureExtractor/MobilenetV1/MobilenetV1/Conv2d_11_pointwise/act_quant/FakeQuantWithMinMaxVars", "op": "FakeQuantWithMinMaxVars", "input": ["FeatureExtractor/MobilenetV1/MobilenetV1/Conv2d_11_pointwise/Relu6", "FeatureExtractor/MobilenetV1/MobilenetV1/Conv2d_11_pointwise/act_quant/min", "FeatureExtractor/MobilenetV1/MobilenetV1/Conv2d_11_pointwise/act_quant/max"], "attr": {"num_bits": {"i": "8"}, "narrow_range": {"b": false}}}, {"name": "BoxPredictor_0/Shape", "op": "Shape", "input": ["FeatureExtractor/MobilenetV1/MobilenetV1/Conv2d_11_pointwise/act_quant/FakeQuantWithMinMaxVars"], "attr": {"T": {"type": "DT_FLOAT"}, "out_type": {"type": "DT_INT32"}}}, {"name": "FeatureExtractor/MobilenetV1/MobilenetV1/Conv2d_12_depthwise/depthwise_Fold", "op": "DepthwiseConv2dNative", "input": ["FeatureExtractor/MobilenetV1/MobilenetV1/Conv2d_11_pointwise/act_quant/FakeQuantWithMinMaxVars", "FeatureExtractor/MobilenetV1/MobilenetV1/Conv2d_12_depthwise/weights_quant/FakeQuantWithMinMaxVars"], "attr": {"strides": {"list": {"i": ["1", "2", "2", "1"]}}, "dilations": {"list": {"i": ["1", "1", "1", "1"]}}, "T": {"type": "DT_FLOAT"}, "data_format": {"s": "TkhXQw=="}, "padding": {"s": "U0FNRQ=="}}}, {"name": "BoxPredictor_0/BoxEncodingPredictor/BiasAdd", "op": "_FusedConv2D", "input": ["FeatureExtractor/MobilenetV1/MobilenetV1/Conv2d_11_pointwise/act_quant/FakeQuantWithMinMaxVars", "BoxPredictor_0/BoxEncodingPredictor/weights_quant/FakeQuantWithMinMaxVars", "BoxPredictor_0/BoxEncodingPredictor/biases"], "device": "/device:CPU:0", "attr": {"explicit_paddings": {"list": {}}, "T": {"type": "DT_FLOAT"}, "use_cudnn_on_gpu": {"b": true}, "data_format": {"s": "TkhXQw=="}, "fused_ops": {"list": {"s": ["Qmlhc0FkZA=="]}}, "dilations": {"list": {"i": ["1", "1", "1", "1"]}}, "strides": {"list": {"i": ["1", "1", "1", "1"]}}, "padding": {"s": "U0FNRQ=="}, "epsilon": {"f": 0.0}, "num_args": {"i": "1"}}}, {"name": "BoxPredictor_0/ClassPredictor/BiasAdd", "op": "_FusedConv2D", "input": ["FeatureExtractor/MobilenetV1/MobilenetV1/Conv2d_11_pointwise/act_quant/FakeQuantWithMinMaxVars", "BoxPredictor_0/ClassPredictor/weights_quant/FakeQuantWithMinMaxVars", "BoxPredictor_0/ClassPredictor/biases"], "device": "/device:CPU:0", "attr": {"epsilon": {"f": 0.0}, "data_format": {"s": "TkhXQw=="}, "explicit_paddings": {"list": {}}, "dilations": {"list": {"i": ["1", "1", "1", "1"]}}, "padding": {"s": "U0FNRQ=="}, "T": {"type": "DT_FLOAT"}, "fused_ops": {"list": {"s": ["Qmlhc0FkZA=="]}}, "use_cudnn_on_gpu": {"b": true}, "num_args": {"i": "1"}, "strides": {"list": {"i": ["1", "1", "1", "1"]}}}}, {"name": "BoxPredictor_0/strided_slice", "op": "StridedSlice", "input": ["BoxPredictor_0/Shape", "Preprocessor/map/strided_slice/stack", "Preprocessor/map/strided_slice/stack_1", "Preprocessor/map/strided_slice/stack_1"], "attr": {"shrink_axis_mask": {"i": "1"}, "T": {"type": "DT_INT32"}, "Index": {"type": "DT_INT32"}, "end_mask": {"i": "0"}, "new_axis_mask": {"i": "0"}, "begin_mask": {"i": "0"}, "ellipsis_mask": {"i": "0"}}}, {"name": "FeatureExtractor/MobilenetV1/MobilenetV1/Conv2d_12_depthwise/add_fold", "op": "Add", "input": ["FeatureExtractor/MobilenetV1/MobilenetV1/Conv2d_12_depthwise/BatchNorm_Fold/bias", "FeatureExtractor/MobilenetV1/MobilenetV1/Conv2d_12_depthwise/depthwise_Fold"], "attr": {"T": {"type": "DT_FLOAT"}}}, {"name": "BoxPredictor_0/BoxEncodingPredictor/act_quant/FakeQuantWithMinMaxVars", "op": "FakeQuantWithMinMaxVars", "input": ["BoxPredictor_0/BoxEncodingPredictor/BiasAdd", "BoxPredictor_0/BoxEncodingPredictor/act_quant/min", "BoxPredictor_0/BoxEncodingPredictor/act_quant/max"], "attr": {"narrow_range": {"b": false}, "num_bits": {"i": "8"}}}, {"name": "BoxPredictor_0/ClassPredictor/act_quant/FakeQuantWithMinMaxVars", "op": "FakeQuantWithMinMaxVars", "input": ["BoxPredictor_0/ClassPredictor/BiasAdd", "BoxPredictor_0/ClassPredictor/act_quant/min", "BoxPredictor_0/ClassPredictor/act_quant/max"], "attr": {"num_bits": {"i": "8"}, "narrow_range": {"b": false}}}, {"name": "BoxPredictor_0/Reshape/shape", "op": "Pack", "input": ["BoxPredictor_0/strided_slice", "BoxPredictor_0/Reshape/shape/1", "Preprocessor/map/TensorArrayUnstack/range/delta", "BoxPredictor_0/Reshape/shape/3"], "attr": {"axis": {"i": "0"}, "T": {"type": "DT_INT32"}, "N": {"i": "4"}}}, {"name": "BoxPredictor_0/Reshape_1/shape", "op": "Pack", "input": ["BoxPredictor_0/strided_slice", "BoxPredictor_0/Reshape/shape/1", "BoxPredictor_0/Reshape_1/shape/2"], "attr": {"T": {"type": "DT_INT32"}, "axis": {"i": "0"}, "N": {"i": "3"}}}, {"name": "FeatureExtractor/MobilenetV1/MobilenetV1/Conv2d_12_depthwise/Relu6", "op": "Relu6", "input": ["FeatureExtractor/MobilenetV1/MobilenetV1/Conv2d_12_depthwise/add_fold"], "attr": {"T": {"type": "DT_FLOAT"}}}, {"name": "BoxPredictor_0/Reshape", "op": "Reshape", "input": ["BoxPredictor_0/BoxEncodingPredictor/act_quant/FakeQuantWithMinMaxVars", "BoxPredictor_0/Reshape/shape"], "attr": {"T": {"type": "DT_FLOAT"}, "Tshape": {"type": "DT_INT32"}}}, {"name": "BoxPredictor_0/Reshape_1", "op": "Reshape", "input": ["BoxPredictor_0/ClassPredictor/act_quant/FakeQuantWithMinMaxVars", "BoxPredictor_0/Reshape_1/shape"], "attr": {"Tshape": {"type": "DT_INT32"}, "T": {"type": "DT_FLOAT"}}}, {"name": "FeatureExtractor/MobilenetV1/MobilenetV1/Conv2d_12_depthwise/act_quant/FakeQuantWithMinMaxVars", "op": "FakeQuantWithMinMaxVars", "input": ["FeatureExtractor/MobilenetV1/MobilenetV1/Conv2d_12_depthwise/Relu6", "FeatureExtractor/MobilenetV1/MobilenetV1/Conv2d_11_pointwise/act_quant/min", "FeatureExtractor/MobilenetV1/MobilenetV1/Conv2d_11_pointwise/act_quant/max"], "attr": {"narrow_range": {"b": false}, "num_bits": {"i": "8"}}}, {"name": "FeatureExtractor/MobilenetV1/MobilenetV1/Conv2d_12_pointwise/Conv2D_Fold", "op": "Conv2D", "input": ["FeatureExtractor/MobilenetV1/MobilenetV1/Conv2d_12_depthwise/act_quant/FakeQuantWithMinMaxVars", "FeatureExtractor/MobilenetV1/MobilenetV1/Conv2d_12_pointwise/weights_quant/FakeQuantWithMinMaxVars"], "device": "/device:CPU:0", "attr": {"use_cudnn_on_gpu": {"b": true}, "dilations": {"list": {"i": ["1", "1", "1", "1"]}}, "data_format": {"s": "TkhXQw=="}, "strides": {"list": {"i": ["1", "1", "1", "1"]}}, "padding": {"s": "U0FNRQ=="}, "explicit_paddings": {"list": {}}, "T": {"type": "DT_FLOAT"}}}, {"name": "FeatureExtractor/MobilenetV1/MobilenetV1/Conv2d_12_pointwise/add_fold", "op": "Add", "input": ["FeatureExtractor/MobilenetV1/MobilenetV1/Conv2d_12_pointwise/BatchNorm_Fold/bias", "FeatureExtractor/MobilenetV1/MobilenetV1/Conv2d_12_pointwise/Conv2D_Fold"], "attr": {"T": {"type": "DT_FLOAT"}}}, {"name": "FeatureExtractor/MobilenetV1/MobilenetV1/Conv2d_12_pointwise/Relu6", "op": "Relu6", "input": ["FeatureExtractor/MobilenetV1/MobilenetV1/Conv2d_12_pointwise/add_fold"], "attr": {"T": {"type": "DT_FLOAT"}}}, {"name": "FeatureExtractor/MobilenetV1/MobilenetV1/Conv2d_12_pointwise/act_quant/FakeQuantWithMinMaxVars", "op": "FakeQuantWithMinMaxVars", "input": ["FeatureExtractor/MobilenetV1/MobilenetV1/Conv2d_12_pointwise/Relu6", "FeatureExtractor/MobilenetV1/MobilenetV1/Conv2d_11_pointwise/act_quant/min", "FeatureExtractor/MobilenetV1/MobilenetV1/Conv2d_11_pointwise/act_quant/max"], "attr": {"narrow_range": {"b": false}, "num_bits": {"i": "8"}}}, {"name": "FeatureExtractor/MobilenetV1/MobilenetV1/Conv2d_13_depthwise/depthwise_Fold", "op": "DepthwiseConv2dNative", "input": ["FeatureExtractor/MobilenetV1/MobilenetV1/Conv2d_12_pointwise/act_quant/FakeQuantWithMinMaxVars", "FeatureExtractor/MobilenetV1/MobilenetV1/Conv2d_13_depthwise/weights_quant/FakeQuantWithMinMaxVars"], "attr": {"dilations": {"list": {"i": ["1", "1", "1", "1"]}}, "strides": {"list": {"i": ["1", "1", "1", "1"]}}, "padding": {"s": "U0FNRQ=="}, "T": {"type": "DT_FLOAT"}, "data_format": {"s": "TkhXQw=="}}}, {"name": "FeatureExtractor/MobilenetV1/MobilenetV1/Conv2d_13_depthwise/add_fold", "op": "Add", "input": ["FeatureExtractor/MobilenetV1/MobilenetV1/Conv2d_13_depthwise/BatchNorm_Fold/bias", "FeatureExtractor/MobilenetV1/MobilenetV1/Conv2d_13_depthwise/depthwise_Fold"], "attr": {"T": {"type": "DT_FLOAT"}}}, {"name": "FeatureExtractor/MobilenetV1/MobilenetV1/Conv2d_13_depthwise/Relu6", "op": "Relu6", "input": ["FeatureExtractor/MobilenetV1/MobilenetV1/Conv2d_13_depthwise/add_fold"], "attr": {"T": {"type": "DT_FLOAT"}}}, {"name": "FeatureExtractor/MobilenetV1/MobilenetV1/Conv2d_13_depthwise/act_quant/FakeQuantWithMinMaxVars", "op": "FakeQuantWithMinMaxVars", "input": ["FeatureExtractor/MobilenetV1/MobilenetV1/Conv2d_13_depthwise/Relu6", "FeatureExtractor/MobilenetV1/MobilenetV1/Conv2d_11_pointwise/act_quant/min", "FeatureExtractor/MobilenetV1/MobilenetV1/Conv2d_11_pointwise/act_quant/max"], "attr": {"narrow_range": {"b": false}, "num_bits": {"i": "8"}}}, {"name": "FeatureExtractor/MobilenetV1/MobilenetV1/Conv2d_13_pointwise/Conv2D_Fold", "op": "Conv2D", "input": ["FeatureExtractor/MobilenetV1/MobilenetV1/Conv2d_13_depthwise/act_quant/FakeQuantWithMinMaxVars", "FeatureExtractor/MobilenetV1/MobilenetV1/Conv2d_13_pointwise/weights_quant/FakeQuantWithMinMaxVars"], "device": "/device:CPU:0", "attr": {"dilations": {"list": {"i": ["1", "1", "1", "1"]}}, "data_format": {"s": "TkhXQw=="}, "padding": {"s": "U0FNRQ=="}, "strides": {"list": {"i": ["1", "1", "1", "1"]}}, "use_cudnn_on_gpu": {"b": true}, "explicit_paddings": {"list": {}}, "T": {"type": "DT_FLOAT"}}}, {"name": "FeatureExtractor/MobilenetV1/MobilenetV1/Conv2d_13_pointwise/add_fold", "op": "Add", "input": ["FeatureExtractor/MobilenetV1/MobilenetV1/Conv2d_13_pointwise/BatchNorm_Fold/bias", "FeatureExtractor/MobilenetV1/MobilenetV1/Conv2d_13_pointwise/Conv2D_Fold"], "attr": {"T": {"type": "DT_FLOAT"}}}, {"name": "FeatureExtractor/MobilenetV1/MobilenetV1/Conv2d_13_pointwise/Relu6", "op": "Relu6", "input": ["FeatureExtractor/MobilenetV1/MobilenetV1/Conv2d_13_pointwise/add_fold"], "attr": {"T": {"type": "DT_FLOAT"}}}, {"name": "FeatureExtractor/MobilenetV1/MobilenetV1/Conv2d_13_pointwise/act_quant/FakeQuantWithMinMaxVars", "op": "FakeQuantWithMinMaxVars", "input": ["FeatureExtractor/MobilenetV1/MobilenetV1/Conv2d_13_pointwise/Relu6", "FeatureExtractor/MobilenetV1/MobilenetV1/Conv2d_11_pointwise/act_quant/min", "FeatureExtractor/MobilenetV1/MobilenetV1/Conv2d_11_pointwise/act_quant/max"], "attr": {"narrow_range": {"b": false}, "num_bits": {"i": "8"}}}, {"name": "BoxPredictor_1/Shape", "op": "Shape", "input": ["FeatureExtractor/MobilenetV1/MobilenetV1/Conv2d_13_pointwise/act_quant/FakeQuantWithMinMaxVars"], "attr": {"T": {"type": "DT_FLOAT"}, "out_type": {"type": "DT_INT32"}}}, {"name": "FeatureExtractor/MobilenetV1/Conv2d_13_pointwise_1_Conv2d_2_1x1_256/Conv2D_Fold", "op": "Conv2D", "input": ["FeatureExtractor/MobilenetV1/MobilenetV1/Conv2d_13_pointwise/act_quant/FakeQuantWithMinMaxVars", "FeatureExtractor/MobilenetV1/Conv2d_13_pointwise_1_Conv2d_2_1x1_256/weights_quant/FakeQuantWithMinMaxVars"], "device": "/device:CPU:0", "attr": {"dilations": {"list": {"i": ["1", "1", "1", "1"]}}, "padding": {"s": "U0FNRQ=="}, "strides": {"list": {"i": ["1", "1", "1", "1"]}}, "explicit_paddings": {"list": {}}, "use_cudnn_on_gpu": {"b": true}, "data_format": {"s": "TkhXQw=="}, "T": {"type": "DT_FLOAT"}}}, {"name": "BoxPredictor_1/BoxEncodingPredictor/BiasAdd", "op": "_FusedConv2D", "input": ["FeatureExtractor/MobilenetV1/MobilenetV1/Conv2d_13_pointwise/act_quant/FakeQuantWithMinMaxVars", "BoxPredictor_1/BoxEncodingPredictor/weights_quant/FakeQuantWithMinMaxVars", "BoxPredictor_1/BoxEncodingPredictor/biases"], "device": "/device:CPU:0", "attr": {"fused_ops": {"list": {"s": ["Qmlhc0FkZA=="]}}, "data_format": {"s": "TkhXQw=="}, "use_cudnn_on_gpu": {"b": true}, "padding": {"s": "U0FNRQ=="}, "num_args": {"i": "1"}, "epsilon": {"f": 0.0}, "strides": {"list": {"i": ["1", "1", "1", "1"]}}, "T": {"type": "DT_FLOAT"}, "explicit_paddings": {"list": {}}, "dilations": {"list": {"i": ["1", "1", "1", "1"]}}}}, {"name": "BoxPredictor_1/ClassPredictor/BiasAdd", "op": "_FusedConv2D", "input": ["FeatureExtractor/MobilenetV1/MobilenetV1/Conv2d_13_pointwise/act_quant/FakeQuantWithMinMaxVars", "BoxPredictor_1/ClassPredictor/weights_quant/FakeQuantWithMinMaxVars", "BoxPredictor_1/ClassPredictor/biases"], "device": "/device:CPU:0", "attr": {"padding": {"s": "U0FNRQ=="}, "strides": {"list": {"i": ["1", "1", "1", "1"]}}, "fused_ops": {"list": {"s": ["Qmlhc0FkZA=="]}}, "T": {"type": "DT_FLOAT"}, "data_format": {"s": "TkhXQw=="}, "num_args": {"i": "1"}, "use_cudnn_on_gpu": {"b": true}, "dilations": {"list": {"i": ["1", "1", "1", "1"]}}, "explicit_paddings": {"list": {}}, "epsilon": {"f": 0.0}}}, {"name": "BoxPredictor_1/strided_slice", "op": "StridedSlice", "input": ["BoxPredictor_1/Shape", "Preprocessor/map/strided_slice/stack", "Preprocessor/map/strided_slice/stack_1", "Preprocessor/map/strided_slice/stack_1"], "attr": {"T": {"type": "DT_INT32"}, "ellipsis_mask": {"i": "0"}, "shrink_axis_mask": {"i": "1"}, "begin_mask": {"i": "0"}, "new_axis_mask": {"i": "0"}, "end_mask": {"i": "0"}, "Index": {"type": "DT_INT32"}}}, {"name": "FeatureExtractor/MobilenetV1/Conv2d_13_pointwise_1_Conv2d_2_1x1_256/add_fold", "op": "Add", "input": ["FeatureExtractor/MobilenetV1/Conv2d_13_pointwise_1_Conv2d_2_1x1_256/BatchNorm_Fold/bias", "FeatureExtractor/MobilenetV1/Conv2d_13_pointwise_1_Conv2d_2_1x1_256/Conv2D_Fold"], "attr": {"T": {"type": "DT_FLOAT"}}}, {"name": "BoxPredictor_1/BoxEncodingPredictor/act_quant/FakeQuantWithMinMaxVars", "op": "FakeQuantWithMinMaxVars", "input": ["BoxPredictor_1/BoxEncodingPredictor/BiasAdd", "BoxPredictor_1/BoxEncodingPredictor/act_quant/min", "BoxPredictor_1/BoxEncodingPredictor/act_quant/max"], "attr": {"num_bits": {"i": "8"}, "narrow_range": {"b": false}}}, {"name": "BoxPredictor_1/ClassPredictor/act_quant/FakeQuantWithMinMaxVars", "op": "FakeQuantWithMinMaxVars", "input": ["BoxPredictor_1/ClassPredictor/BiasAdd", "BoxPredictor_1/ClassPredictor/act_quant/min", "BoxPredictor_1/ClassPredictor/act_quant/max"], "attr": {"narrow_range": {"b": false}, "num_bits": {"i": "8"}}}, {"name": "BoxPredictor_1/Reshape/shape", "op": "Pack", "input": ["BoxPredictor_1/strided_slice", "BoxPredictor_0/Reshape/shape/1", "Preprocessor/map/TensorArrayUnstack/range/delta", "BoxPredictor_0/Reshape/shape/3"], "attr": {"axis": {"i": "0"}, "N": {"i": "4"}, "T": {"type": "DT_INT32"}}}, {"name": "BoxPredictor_1/Reshape_1/shape", "op": "Pack", "input": ["BoxPredictor_1/strided_slice", "BoxPredictor_0/Reshape/shape/1", "BoxPredictor_0/Reshape_1/shape/2"], "attr": {"axis": {"i": "0"}, "N": {"i": "3"}, "T": {"type": "DT_INT32"}}}, {"name": "FeatureExtractor/MobilenetV1/Conv2d_13_pointwise_1_Conv2d_2_1x1_256/Relu6", "op": "Relu6", "input": ["FeatureExtractor/MobilenetV1/Conv2d_13_pointwise_1_Conv2d_2_1x1_256/add_fold"], "attr": {"T": {"type": "DT_FLOAT"}}}, {"name": "BoxPredictor_1/Reshape", "op": "Reshape", "input": ["BoxPredictor_1/BoxEncodingPredictor/act_quant/FakeQuantWithMinMaxVars", "BoxPredictor_1/Reshape/shape"], "attr": {"Tshape": {"type": "DT_INT32"}, "T": {"type": "DT_FLOAT"}}}, {"name": "BoxPredictor_1/Reshape_1", "op": "Reshape", "input": ["BoxPredictor_1/ClassPredictor/act_quant/FakeQuantWithMinMaxVars", "BoxPredictor_1/Reshape_1/shape"], "attr": {"T": {"type": "DT_FLOAT"}, "Tshape": {"type": "DT_INT32"}}}, {"name": "FeatureExtractor/MobilenetV1/Conv2d_13_pointwise_1_Conv2d_2_1x1_256/act_quant/FakeQuantWithMinMaxVars", "op": "FakeQuantWithMinMaxVars", "input": ["FeatureExtractor/MobilenetV1/Conv2d_13_pointwise_1_Conv2d_2_1x1_256/Relu6", "FeatureExtractor/MobilenetV1/Conv2d_13_pointwise_1_Conv2d_2_1x1_256/act_quant/min", "FeatureExtractor/MobilenetV1/Conv2d_13_pointwise_1_Conv2d_2_1x1_256/act_quant/max"], "attr": {"narrow_range": {"b": false}, "num_bits": {"i": "8"}}}, {"name": "FeatureExtractor/MobilenetV1/Conv2d_13_pointwise_2_Conv2d_2_3x3_s2_512/Conv2D_Fold", "op": "Conv2D", "input": ["FeatureExtractor/MobilenetV1/Conv2d_13_pointwise_1_Conv2d_2_1x1_256/act_quant/FakeQuantWithMinMaxVars", "FeatureExtractor/MobilenetV1/Conv2d_13_pointwise_2_Conv2d_2_3x3_s2_512/weights_quant/FakeQuantWithMinMaxVars"], "device": "/device:CPU:0", "attr": {"dilations": {"list": {"i": ["1", "1", "1", "1"]}}, "strides": {"list": {"i": ["1", "2", "2", "1"]}}, "T": {"type": "DT_FLOAT"}, "padding": {"s": "U0FNRQ=="}, "data_format": {"s": "TkhXQw=="}, "use_cudnn_on_gpu": {"b": true}, "explicit_paddings": {"list": {}}}}, {"name": "FeatureExtractor/MobilenetV1/Conv2d_13_pointwise_2_Conv2d_2_3x3_s2_512/add_fold", "op": "Add", "input": ["FeatureExtractor/MobilenetV1/Conv2d_13_pointwise_2_Conv2d_2_3x3_s2_512/BatchNorm_Fold/bias", "FeatureExtractor/MobilenetV1/Conv2d_13_pointwise_2_Conv2d_2_3x3_s2_512/Conv2D_Fold"], "attr": {"T": {"type": "DT_FLOAT"}}}, {"name": "FeatureExtractor/MobilenetV1/Conv2d_13_pointwise_2_Conv2d_2_3x3_s2_512/Relu6", "op": "Relu6", "input": ["FeatureExtractor/MobilenetV1/Conv2d_13_pointwise_2_Conv2d_2_3x3_s2_512/add_fold"], "attr": {"T": {"type": "DT_FLOAT"}}}, {"name": "FeatureExtractor/MobilenetV1/Conv2d_13_pointwise_2_Conv2d_2_3x3_s2_512/act_quant/FakeQuantWithMinMaxVars", "op": "FakeQuantWithMinMaxVars", "input": ["FeatureExtractor/MobilenetV1/Conv2d_13_pointwise_2_Conv2d_2_3x3_s2_512/Relu6", "FeatureExtractor/MobilenetV1/Conv2d_13_pointwise_2_Conv2d_2_3x3_s2_512/act_quant/min", "FeatureExtractor/MobilenetV1/Conv2d_13_pointwise_2_Conv2d_2_3x3_s2_512/act_quant/max"], "attr": {"num_bits": {"i": "8"}, "narrow_range": {"b": false}}}, {"name": "BoxPredictor_2/Shape", "op": "Shape", "input": ["FeatureExtractor/MobilenetV1/Conv2d_13_pointwise_2_Conv2d_2_3x3_s2_512/act_quant/FakeQuantWithMinMaxVars"], "attr": {"out_type": {"type": "DT_INT32"}, "T": {"type": "DT_FLOAT"}}}, {"name": "FeatureExtractor/MobilenetV1/Conv2d_13_pointwise_1_Conv2d_3_1x1_128/Conv2D_Fold", "op": "Conv2D", "input": ["FeatureExtractor/MobilenetV1/Conv2d_13_pointwise_2_Conv2d_2_3x3_s2_512/act_quant/FakeQuantWithMinMaxVars", "FeatureExtractor/MobilenetV1/Conv2d_13_pointwise_1_Conv2d_3_1x1_128/weights_quant/FakeQuantWithMinMaxVars"], "device": "/device:CPU:0", "attr": {"padding": {"s": "U0FNRQ=="}, "T": {"type": "DT_FLOAT"}, "use_cudnn_on_gpu": {"b": true}, "explicit_paddings": {"list": {}}, "strides": {"list": {"i": ["1", "1", "1", "1"]}}, "dilations": {"list": {"i": ["1", "1", "1", "1"]}}, "data_format": {"s": "TkhXQw=="}}}, {"name": "BoxPredictor_2/BoxEncodingPredictor/BiasAdd", "op": "_FusedConv2D", "input": ["FeatureExtractor/MobilenetV1/Conv2d_13_pointwise_2_Conv2d_2_3x3_s2_512/act_quant/FakeQuantWithMinMaxVars", "BoxPredictor_2/BoxEncodingPredictor/weights_quant/FakeQuantWithMinMaxVars", "BoxPredictor_2/BoxEncodingPredictor/biases"], "device": "/device:CPU:0", "attr": {"use_cudnn_on_gpu": {"b": true}, "data_format": {"s": "TkhXQw=="}, "T": {"type": "DT_FLOAT"}, "dilations": {"list": {"i": ["1", "1", "1", "1"]}}, "strides": {"list": {"i": ["1", "1", "1", "1"]}}, "num_args": {"i": "1"}, "fused_ops": {"list": {"s": ["Qmlhc0FkZA=="]}}, "explicit_paddings": {"list": {}}, "epsilon": {"f": 0.0}, "padding": {"s": "U0FNRQ=="}}}, {"name": "BoxPredictor_2/ClassPredictor/BiasAdd", "op": "_FusedConv2D", "input": ["FeatureExtractor/MobilenetV1/Conv2d_13_pointwise_2_Conv2d_2_3x3_s2_512/act_quant/FakeQuantWithMinMaxVars", "BoxPredictor_2/ClassPredictor/weights_quant/FakeQuantWithMinMaxVars", "BoxPredictor_2/ClassPredictor/biases"], "device": "/device:CPU:0", "attr": {"explicit_paddings": {"list": {}}, "fused_ops": {"list": {"s": ["Qmlhc0FkZA=="]}}, "dilations": {"list": {"i": ["1", "1", "1", "1"]}}, "use_cudnn_on_gpu": {"b": true}, "num_args": {"i": "1"}, "padding": {"s": "U0FNRQ=="}, "data_format": {"s": "TkhXQw=="}, "strides": {"list": {"i": ["1", "1", "1", "1"]}}, "epsilon": {"f": 0.0}, "T": {"type": "DT_FLOAT"}}}, {"name": "BoxPredictor_2/strided_slice", "op": "StridedSlice", "input": ["BoxPredictor_2/Shape", "Preprocessor/map/strided_slice/stack", "Preprocessor/map/strided_slice/stack_1", "Preprocessor/map/strided_slice/stack_1"], "attr": {"T": {"type": "DT_INT32"}, "shrink_axis_mask": {"i": "1"}, "new_axis_mask": {"i": "0"}, "Index": {"type": "DT_INT32"}, "ellipsis_mask": {"i": "0"}, "begin_mask": {"i": "0"}, "end_mask": {"i": "0"}}}, {"name": "FeatureExtractor/MobilenetV1/Conv2d_13_pointwise_1_Conv2d_3_1x1_128/add_fold", "op": "Add", "input": ["FeatureExtractor/MobilenetV1/Conv2d_13_pointwise_1_Conv2d_3_1x1_128/BatchNorm_Fold/bias", "FeatureExtractor/MobilenetV1/Conv2d_13_pointwise_1_Conv2d_3_1x1_128/Conv2D_Fold"], "attr": {"T": {"type": "DT_FLOAT"}}}, {"name": "BoxPredictor_2/BoxEncodingPredictor/act_quant/FakeQuantWithMinMaxVars", "op": "FakeQuantWithMinMaxVars", "input": ["BoxPredictor_2/BoxEncodingPredictor/BiasAdd", "BoxPredictor_2/BoxEncodingPredictor/act_quant/min", "BoxPredictor_2/BoxEncodingPredictor/act_quant/max"], "attr": {"num_bits": {"i": "8"}, "narrow_range": {"b": false}}}, {"name": "BoxPredictor_2/ClassPredictor/act_quant/FakeQuantWithMinMaxVars", "op": "FakeQuantWithMinMaxVars", "input": ["BoxPredictor_2/ClassPredictor/BiasAdd", "BoxPredictor_2/ClassPredictor/act_quant/min", "BoxPredictor_2/ClassPredictor/act_quant/max"], "attr": {"num_bits": {"i": "8"}, "narrow_range": {"b": false}}}, {"name": "BoxPredictor_2/Reshape/shape", "op": "Pack", "input": ["BoxPredictor_2/strided_slice", "BoxPredictor_0/Reshape/shape/1", "Preprocessor/map/TensorArrayUnstack/range/delta", "BoxPredictor_0/Reshape/shape/3"], "attr": {"N": {"i": "4"}, "T": {"type": "DT_INT32"}, "axis": {"i": "0"}}}, {"name": "BoxPredictor_2/Reshape_1/shape", "op": "Pack", "input": ["BoxPredictor_2/strided_slice", "BoxPredictor_0/Reshape/shape/1", "BoxPredictor_0/Reshape_1/shape/2"], "attr": {"N": {"i": "3"}, "axis": {"i": "0"}, "T": {"type": "DT_INT32"}}}, {"name": "FeatureExtractor/MobilenetV1/Conv2d_13_pointwise_1_Conv2d_3_1x1_128/Relu6", "op": "Relu6", "input": ["FeatureExtractor/MobilenetV1/Conv2d_13_pointwise_1_Conv2d_3_1x1_128/add_fold"], "attr": {"T": {"type": "DT_FLOAT"}}}, {"name": "BoxPredictor_2/Reshape", "op": "Reshape", "input": ["BoxPredictor_2/BoxEncodingPredictor/act_quant/FakeQuantWithMinMaxVars", "BoxPredictor_2/Reshape/shape"], "attr": {"Tshape": {"type": "DT_INT32"}, "T": {"type": "DT_FLOAT"}}}, {"name": "BoxPredictor_2/Reshape_1", "op": "Reshape", "input": ["BoxPredictor_2/ClassPredictor/act_quant/FakeQuantWithMinMaxVars", "BoxPredictor_2/Reshape_1/shape"], "attr": {"Tshape": {"type": "DT_INT32"}, "T": {"type": "DT_FLOAT"}}}, {"name": "FeatureExtractor/MobilenetV1/Conv2d_13_pointwise_1_Conv2d_3_1x1_128/act_quant/FakeQuantWithMinMaxVars", "op": "FakeQuantWithMinMaxVars", "input": ["FeatureExtractor/MobilenetV1/Conv2d_13_pointwise_1_Conv2d_3_1x1_128/Relu6", "FeatureExtractor/MobilenetV1/Conv2d_13_pointwise_1_Conv2d_3_1x1_128/act_quant/min", "FeatureExtractor/MobilenetV1/Conv2d_13_pointwise_1_Conv2d_3_1x1_128/act_quant/max"], "attr": {"num_bits": {"i": "8"}, "narrow_range": {"b": false}}}, {"name": "FeatureExtractor/MobilenetV1/Conv2d_13_pointwise_2_Conv2d_3_3x3_s2_256/Conv2D_Fold", "op": "Conv2D", "input": ["FeatureExtractor/MobilenetV1/Conv2d_13_pointwise_1_Conv2d_3_1x1_128/act_quant/FakeQuantWithMinMaxVars", "FeatureExtractor/MobilenetV1/Conv2d_13_pointwise_2_Conv2d_3_3x3_s2_256/weights_quant/FakeQuantWithMinMaxVars"], "device": "/device:CPU:0", "attr": {"dilations": {"list": {"i": ["1", "1", "1", "1"]}}, "T": {"type": "DT_FLOAT"}, "use_cudnn_on_gpu": {"b": true}, "data_format": {"s": "TkhXQw=="}, "explicit_paddings": {"list": {}}, "strides": {"list": {"i": ["1", "2", "2", "1"]}}, "padding": {"s": "U0FNRQ=="}}}, {"name": "FeatureExtractor/MobilenetV1/Conv2d_13_pointwise_2_Conv2d_3_3x3_s2_256/add_fold", "op": "Add", "input": ["FeatureExtractor/MobilenetV1/Conv2d_13_pointwise_2_Conv2d_3_3x3_s2_256/BatchNorm_Fold/bias", "FeatureExtractor/MobilenetV1/Conv2d_13_pointwise_2_Conv2d_3_3x3_s2_256/Conv2D_Fold"], "attr": {"T": {"type": "DT_FLOAT"}}}, {"name": "FeatureExtractor/MobilenetV1/Conv2d_13_pointwise_2_Conv2d_3_3x3_s2_256/Relu6", "op": "Relu6", "input": ["FeatureExtractor/MobilenetV1/Conv2d_13_pointwise_2_Conv2d_3_3x3_s2_256/add_fold"], "attr": {"T": {"type": "DT_FLOAT"}}}, {"name": "FeatureExtractor/MobilenetV1/Conv2d_13_pointwise_2_Conv2d_3_3x3_s2_256/act_quant/FakeQuantWithMinMaxVars", "op": "FakeQuantWithMinMaxVars", "input": ["FeatureExtractor/MobilenetV1/Conv2d_13_pointwise_2_Conv2d_3_3x3_s2_256/Relu6", "FeatureExtractor/MobilenetV1/Conv2d_13_pointwise_2_Conv2d_3_3x3_s2_256/act_quant/min", "FeatureExtractor/MobilenetV1/Conv2d_13_pointwise_2_Conv2d_3_3x3_s2_256/act_quant/max"], "attr": {"num_bits": {"i": "8"}, "narrow_range": {"b": false}}}, {"name": "BoxPredictor_3/ClassPredictor/BiasAdd", "op": "_FusedConv2D", "input": ["FeatureExtractor/MobilenetV1/Conv2d_13_pointwise_2_Conv2d_3_3x3_s2_256/act_quant/FakeQuantWithMinMaxVars", "BoxPredictor_3/ClassPredictor/weights_quant/FakeQuantWithMinMaxVars", "BoxPredictor_3/ClassPredictor/biases"], "device": "/device:CPU:0", "attr": {"strides": {"list": {"i": ["1", "1", "1", "1"]}}, "num_args": {"i": "1"}, "dilations": {"list": {"i": ["1", "1", "1", "1"]}}, "padding": {"s": "U0FNRQ=="}, "data_format": {"s": "TkhXQw=="}, "T": {"type": "DT_FLOAT"}, "use_cudnn_on_gpu": {"b": true}, "fused_ops": {"list": {"s": ["Qmlhc0FkZA=="]}}, "explicit_paddings": {"list": {}}, "epsilon": {"f": 0.0}}}, {"name": "BoxPredictor_3/Shape", "op": "Shape", "input": ["FeatureExtractor/MobilenetV1/Conv2d_13_pointwise_2_Conv2d_3_3x3_s2_256/act_quant/FakeQuantWithMinMaxVars"], "attr": {"out_type": {"type": "DT_INT32"}, "T": {"type": "DT_FLOAT"}}}, {"name": "FeatureExtractor/MobilenetV1/Conv2d_13_pointwise_1_Conv2d_4_1x1_128/Conv2D_Fold", "op": "Conv2D", "input": ["FeatureExtractor/MobilenetV1/Conv2d_13_pointwise_2_Conv2d_3_3x3_s2_256/act_quant/FakeQuantWithMinMaxVars", "FeatureExtractor/MobilenetV1/Conv2d_13_pointwise_1_Conv2d_4_1x1_128/weights_quant/FakeQuantWithMinMaxVars"], "device": "/device:CPU:0", "attr": {"T": {"type": "DT_FLOAT"}, "padding": {"s": "U0FNRQ=="}, "data_format": {"s": "TkhXQw=="}, "dilations": {"list": {"i": ["1", "1", "1", "1"]}}, "strides": {"list": {"i": ["1", "1", "1", "1"]}}, "use_cudnn_on_gpu": {"b": true}, "explicit_paddings": {"list": {}}}}, {"name": "BoxPredictor_3/BoxEncodingPredictor/BiasAdd", "op": "_FusedConv2D", "input": ["FeatureExtractor/MobilenetV1/Conv2d_13_pointwise_2_Conv2d_3_3x3_s2_256/act_quant/FakeQuantWithMinMaxVars", "BoxPredictor_3/BoxEncodingPredictor/weights_quant/FakeQuantWithMinMaxVars", "BoxPredictor_3/BoxEncodingPredictor/biases"], "device": "/device:CPU:0", "attr": {"dilations": {"list": {"i": ["1", "1", "1", "1"]}}, "data_format": {"s": "TkhXQw=="}, "padding": {"s": "U0FNRQ=="}, "epsilon": {"f": 0.0}, "explicit_paddings": {"list": {}}, "num_args": {"i": "1"}, "T": {"type": "DT_FLOAT"}, "fused_ops": {"list": {"s": ["Qmlhc0FkZA=="]}}, "strides": {"list": {"i": ["1", "1", "1", "1"]}}, "use_cudnn_on_gpu": {"b": true}}}, {"name": "BoxPredictor_3/ClassPredictor/act_quant/FakeQuantWithMinMaxVars", "op": "FakeQuantWithMinMaxVars", "input": ["BoxPredictor_3/ClassPredictor/BiasAdd", "BoxPredictor_3/ClassPredictor/act_quant/min", "BoxPredictor_3/ClassPredictor/act_quant/max"], "attr": {"num_bits": {"i": "8"}, "narrow_range": {"b": false}}}, {"name": "BoxPredictor_3/strided_slice", "op": "StridedSlice", "input": ["BoxPredictor_3/Shape", "Preprocessor/map/strided_slice/stack", "Preprocessor/map/strided_slice/stack_1", "Preprocessor/map/strided_slice/stack_1"], "attr": {"end_mask": {"i": "0"}, "T": {"type": "DT_INT32"}, "new_axis_mask": {"i": "0"}, "ellipsis_mask": {"i": "0"}, "shrink_axis_mask": {"i": "1"}, "Index": {"type": "DT_INT32"}, "begin_mask": {"i": "0"}}}, {"name": "FeatureExtractor/MobilenetV1/Conv2d_13_pointwise_1_Conv2d_4_1x1_128/add_fold", "op": "Add", "input": ["FeatureExtractor/MobilenetV1/Conv2d_13_pointwise_1_Conv2d_4_1x1_128/BatchNorm_Fold/bias", "FeatureExtractor/MobilenetV1/Conv2d_13_pointwise_1_Conv2d_4_1x1_128/Conv2D_Fold"], "attr": {"T": {"type": "DT_FLOAT"}}}, {"name": "BoxPredictor_3/BoxEncodingPredictor/act_quant/FakeQuantWithMinMaxVars", "op": "FakeQuantWithMinMaxVars", "input": ["BoxPredictor_3/BoxEncodingPredictor/BiasAdd", "BoxPredictor_3/BoxEncodingPredictor/act_quant/min", "BoxPredictor_3/BoxEncodingPredictor/act_quant/max"], "attr": {"narrow_range": {"b": false}, "num_bits": {"i": "8"}}}, {"name": "BoxPredictor_3/Reshape/shape", "op": "Pack", "input": ["BoxPredictor_3/strided_slice", "BoxPredictor_0/Reshape/shape/1", "Preprocessor/map/TensorArrayUnstack/range/delta", "BoxPredictor_0/Reshape/shape/3"], "attr": {"axis": {"i": "0"}, "N": {"i": "4"}, "T": {"type": "DT_INT32"}}}, {"name": "BoxPredictor_3/Reshape_1/shape", "op": "Pack", "input": ["BoxPredictor_3/strided_slice", "BoxPredictor_0/Reshape/shape/1", "BoxPredictor_0/Reshape_1/shape/2"], "attr": {"N": {"i": "3"}, "T": {"type": "DT_INT32"}, "axis": {"i": "0"}}}, {"name": "FeatureExtractor/MobilenetV1/Conv2d_13_pointwise_1_Conv2d_4_1x1_128/Relu6", "op": "Relu6", "input": ["FeatureExtractor/MobilenetV1/Conv2d_13_pointwise_1_Conv2d_4_1x1_128/add_fold"], "attr": {"T": {"type": "DT_FLOAT"}}}, {"name": "BoxPredictor_3/Reshape", "op": "Reshape", "input": ["BoxPredictor_3/BoxEncodingPredictor/act_quant/FakeQuantWithMinMaxVars", "BoxPredictor_3/Reshape/shape"], "attr": {"Tshape": {"type": "DT_INT32"}, "T": {"type": "DT_FLOAT"}}}, {"name": "BoxPredictor_3/Reshape_1", "op": "Reshape", "input": ["BoxPredictor_3/ClassPredictor/act_quant/FakeQuantWithMinMaxVars", "BoxPredictor_3/Reshape_1/shape"], "attr": {"Tshape": {"type": "DT_INT32"}, "T": {"type": "DT_FLOAT"}}}, {"name": "FeatureExtractor/MobilenetV1/Conv2d_13_pointwise_1_Conv2d_4_1x1_128/act_quant/FakeQuantWithMinMaxVars", "op": "FakeQuantWithMinMaxVars", "input": ["FeatureExtractor/MobilenetV1/Conv2d_13_pointwise_1_Conv2d_4_1x1_128/Relu6", "FeatureExtractor/MobilenetV1/Conv2d_13_pointwise_1_Conv2d_4_1x1_128/act_quant/min", "FeatureExtractor/MobilenetV1/Conv2d_13_pointwise_1_Conv2d_4_1x1_128/act_quant/max"], "attr": {"num_bits": {"i": "8"}, "narrow_range": {"b": false}}}, {"name": "FeatureExtractor/MobilenetV1/Conv2d_13_pointwise_2_Conv2d_4_3x3_s2_256/Conv2D_Fold", "op": "Conv2D", "input": ["FeatureExtractor/MobilenetV1/Conv2d_13_pointwise_1_Conv2d_4_1x1_128/act_quant/FakeQuantWithMinMaxVars", "FeatureExtractor/MobilenetV1/Conv2d_13_pointwise_2_Conv2d_4_3x3_s2_256/weights_quant/FakeQuantWithMinMaxVars"], "device": "/device:CPU:0", "attr": {"strides": {"list": {"i": ["1", "2", "2", "1"]}}, "explicit_paddings": {"list": {}}, "T": {"type": "DT_FLOAT"}, "data_format": {"s": "TkhXQw=="}, "dilations": {"list": {"i": ["1", "1", "1", "1"]}}, "use_cudnn_on_gpu": {"b": true}, "padding": {"s": "U0FNRQ=="}}}, {"name": "FeatureExtractor/MobilenetV1/Conv2d_13_pointwise_2_Conv2d_4_3x3_s2_256/add_fold", "op": "Add", "input": ["FeatureExtractor/MobilenetV1/Conv2d_13_pointwise_2_Conv2d_4_3x3_s2_256/BatchNorm_Fold/bias", "FeatureExtractor/MobilenetV1/Conv2d_13_pointwise_2_Conv2d_4_3x3_s2_256/Conv2D_Fold"], "attr": {"T": {"type": "DT_FLOAT"}}}, {"name": "FeatureExtractor/MobilenetV1/Conv2d_13_pointwise_2_Conv2d_4_3x3_s2_256/Relu6", "op": "Relu6", "input": ["FeatureExtractor/MobilenetV1/Conv2d_13_pointwise_2_Conv2d_4_3x3_s2_256/add_fold"], "attr": {"T": {"type": "DT_FLOAT"}}}, {"name": "FeatureExtractor/MobilenetV1/Conv2d_13_pointwise_2_Conv2d_4_3x3_s2_256/act_quant/FakeQuantWithMinMaxVars", "op": "FakeQuantWithMinMaxVars", "input": ["FeatureExtractor/MobilenetV1/Conv2d_13_pointwise_2_Conv2d_4_3x3_s2_256/Relu6", "FeatureExtractor/MobilenetV1/Conv2d_13_pointwise_2_Conv2d_4_3x3_s2_256/act_quant/min", "FeatureExtractor/MobilenetV1/Conv2d_13_pointwise_2_Conv2d_4_3x3_s2_256/act_quant/max"], "attr": {"narrow_range": {"b": false}, "num_bits": {"i": "8"}}}, {"name": "BoxPredictor_4/ClassPredictor/BiasAdd", "op": "_FusedConv2D", "input": ["FeatureExtractor/MobilenetV1/Conv2d_13_pointwise_2_Conv2d_4_3x3_s2_256/act_quant/FakeQuantWithMinMaxVars", "BoxPredictor_4/ClassPredictor/weights_quant/FakeQuantWithMinMaxVars", "BoxPredictor_4/ClassPredictor/biases"], "device": "/device:CPU:0", "attr": {"padding": {"s": "U0FNRQ=="}, "dilations": {"list": {"i": ["1", "1", "1", "1"]}}, "explicit_paddings": {"list": {}}, "epsilon": {"f": 0.0}, "num_args": {"i": "1"}, "fused_ops": {"list": {"s": ["Qmlhc0FkZA=="]}}, "data_format": {"s": "TkhXQw=="}, "use_cudnn_on_gpu": {"b": true}, "strides": {"list": {"i": ["1", "1", "1", "1"]}}, "T": {"type": "DT_FLOAT"}}}, {"name": "BoxPredictor_4/BoxEncodingPredictor/BiasAdd", "op": "_FusedConv2D", "input": ["FeatureExtractor/MobilenetV1/Conv2d_13_pointwise_2_Conv2d_4_3x3_s2_256/act_quant/FakeQuantWithMinMaxVars", "BoxPredictor_4/BoxEncodingPredictor/weights_quant/FakeQuantWithMinMaxVars", "BoxPredictor_4/BoxEncodingPredictor/biases"], "device": "/device:CPU:0", "attr": {"padding": {"s": "U0FNRQ=="}, "num_args": {"i": "1"}, "data_format": {"s": "TkhXQw=="}, "epsilon": {"f": 0.0}, "fused_ops": {"list": {"s": ["Qmlhc0FkZA=="]}}, "strides": {"list": {"i": ["1", "1", "1", "1"]}}, "use_cudnn_on_gpu": {"b": true}, "dilations": {"list": {"i": ["1", "1", "1", "1"]}}, "explicit_paddings": {"list": {}}, "T": {"type": "DT_FLOAT"}}}, {"name": "BoxPredictor_4/Shape", "op": "Shape", "input": ["FeatureExtractor/MobilenetV1/Conv2d_13_pointwise_2_Conv2d_4_3x3_s2_256/act_quant/FakeQuantWithMinMaxVars"], "attr": {"T": {"type": "DT_FLOAT"}, "out_type": {"type": "DT_INT32"}}}, {"name": "FeatureExtractor/MobilenetV1/Conv2d_13_pointwise_1_Conv2d_5_1x1_64/Conv2D_Fold", "op": "Conv2D", "input": ["FeatureExtractor/MobilenetV1/Conv2d_13_pointwise_2_Conv2d_4_3x3_s2_256/act_quant/FakeQuantWithMinMaxVars", "FeatureExtractor/MobilenetV1/Conv2d_13_pointwise_1_Conv2d_5_1x1_64/weights_quant/FakeQuantWithMinMaxVars"], "device": "/device:CPU:0", "attr": {"explicit_paddings": {"list": {}}, "T": {"type": "DT_FLOAT"}, "use_cudnn_on_gpu": {"b": true}, "strides": {"list": {"i": ["1", "1", "1", "1"]}}, "padding": {"s": "U0FNRQ=="}, "data_format": {"s": "TkhXQw=="}, "dilations": {"list": {"i": ["1", "1", "1", "1"]}}}}, {"name": "BoxPredictor_4/ClassPredictor/act_quant/FakeQuantWithMinMaxVars", "op": "FakeQuantWithMinMaxVars", "input": ["BoxPredictor_4/ClassPredictor/BiasAdd", "BoxPredictor_4/ClassPredictor/act_quant/min", "BoxPredictor_4/ClassPredictor/act_quant/max"], "attr": {"num_bits": {"i": "8"}, "narrow_range": {"b": false}}}, {"name": "BoxPredictor_4/BoxEncodingPredictor/act_quant/FakeQuantWithMinMaxVars", "op": "FakeQuantWithMinMaxVars", "input": ["BoxPredictor_4/BoxEncodingPredictor/BiasAdd", "BoxPredictor_4/BoxEncodingPredictor/act_quant/min", "BoxPredictor_4/BoxEncodingPredictor/act_quant/max"], "attr": {"narrow_range": {"b": false}, "num_bits": {"i": "8"}}}, {"name": "BoxPredictor_4/strided_slice", "op": "StridedSlice", "input": ["BoxPredictor_4/Shape", "Preprocessor/map/strided_slice/stack", "Preprocessor/map/strided_slice/stack_1", "Preprocessor/map/strided_slice/stack_1"], "attr": {"shrink_axis_mask": {"i": "1"}, "end_mask": {"i": "0"}, "Index": {"type": "DT_INT32"}, "begin_mask": {"i": "0"}, "new_axis_mask": {"i": "0"}, "T": {"type": "DT_INT32"}, "ellipsis_mask": {"i": "0"}}}, {"name": "FeatureExtractor/MobilenetV1/Conv2d_13_pointwise_1_Conv2d_5_1x1_64/add_fold", "op": "Add", "input": ["FeatureExtractor/MobilenetV1/Conv2d_13_pointwise_1_Conv2d_5_1x1_64/BatchNorm_Fold/bias", "FeatureExtractor/MobilenetV1/Conv2d_13_pointwise_1_Conv2d_5_1x1_64/Conv2D_Fold"], "attr": {"T": {"type": "DT_FLOAT"}}}, {"name": "BoxPredictor_4/Reshape/shape", "op": "Pack", "input": ["BoxPredictor_4/strided_slice", "BoxPredictor_0/Reshape/shape/1", "Preprocessor/map/TensorArrayUnstack/range/delta", "BoxPredictor_0/Reshape/shape/3"], "attr": {"N": {"i": "4"}, "axis": {"i": "0"}, "T": {"type": "DT_INT32"}}}, {"name": "BoxPredictor_4/Reshape_1/shape", "op": "Pack", "input": ["BoxPredictor_4/strided_slice", "BoxPredictor_0/Reshape/shape/1", "BoxPredictor_0/Reshape_1/shape/2"], "attr": {"axis": {"i": "0"}, "N": {"i": "3"}, "T": {"type": "DT_INT32"}}}, {"name": "FeatureExtractor/MobilenetV1/Conv2d_13_pointwise_1_Conv2d_5_1x1_64/Relu6", "op": "Relu6", "input": ["FeatureExtractor/MobilenetV1/Conv2d_13_pointwise_1_Conv2d_5_1x1_64/add_fold"], "attr": {"T": {"type": "DT_FLOAT"}}}, {"name": "BoxPredictor_4/Reshape", "op": "Reshape", "input": ["BoxPredictor_4/BoxEncodingPredictor/act_quant/FakeQuantWithMinMaxVars", "BoxPredictor_4/Reshape/shape"], "attr": {"T": {"type": "DT_FLOAT"}, "Tshape": {"type": "DT_INT32"}}}, {"name": "BoxPredictor_4/Reshape_1", "op": "Reshape", "input": ["BoxPredictor_4/ClassPredictor/act_quant/FakeQuantWithMinMaxVars", "BoxPredictor_4/Reshape_1/shape"], "attr": {"T": {"type": "DT_FLOAT"}, "Tshape": {"type": "DT_INT32"}}}, {"name": "FeatureExtractor/MobilenetV1/Conv2d_13_pointwise_1_Conv2d_5_1x1_64/act_quant/FakeQuantWithMinMaxVars", "op": "FakeQuantWithMinMaxVars", "input": ["FeatureExtractor/MobilenetV1/Conv2d_13_pointwise_1_Conv2d_5_1x1_64/Relu6", "FeatureExtractor/MobilenetV1/Conv2d_13_pointwise_1_Conv2d_5_1x1_64/act_quant/min", "FeatureExtractor/MobilenetV1/Conv2d_13_pointwise_1_Conv2d_5_1x1_64/act_quant/max"], "attr": {"narrow_range": {"b": false}, "num_bits": {"i": "8"}}}, {"name": "FeatureExtractor/MobilenetV1/Conv2d_13_pointwise_2_Conv2d_5_3x3_s2_128/Conv2D_Fold", "op": "Conv2D", "input": ["FeatureExtractor/MobilenetV1/Conv2d_13_pointwise_1_Conv2d_5_1x1_64/act_quant/FakeQuantWithMinMaxVars", "FeatureExtractor/MobilenetV1/Conv2d_13_pointwise_2_Conv2d_5_3x3_s2_128/weights_quant/FakeQuantWithMinMaxVars"], "device": "/device:CPU:0", "attr": {"dilations": {"list": {"i": ["1", "1", "1", "1"]}}, "padding": {"s": "U0FNRQ=="}, "T": {"type": "DT_FLOAT"}, "strides": {"list": {"i": ["1", "2", "2", "1"]}}, "data_format": {"s": "TkhXQw=="}, "explicit_paddings": {"list": {}}, "use_cudnn_on_gpu": {"b": true}}}, {"name": "FeatureExtractor/MobilenetV1/Conv2d_13_pointwise_2_Conv2d_5_3x3_s2_128/add_fold", "op": "Add", "input": ["FeatureExtractor/MobilenetV1/Conv2d_13_pointwise_2_Conv2d_5_3x3_s2_128/BatchNorm_Fold/bias", "FeatureExtractor/MobilenetV1/Conv2d_13_pointwise_2_Conv2d_5_3x3_s2_128/Conv2D_Fold"], "attr": {"T": {"type": "DT_FLOAT"}}}, {"name": "FeatureExtractor/MobilenetV1/Conv2d_13_pointwise_2_Conv2d_5_3x3_s2_128/Relu6", "op": "Relu6", "input": ["FeatureExtractor/MobilenetV1/Conv2d_13_pointwise_2_Conv2d_5_3x3_s2_128/add_fold"], "attr": {"T": {"type": "DT_FLOAT"}}}, {"name": "FeatureExtractor/MobilenetV1/Conv2d_13_pointwise_2_Conv2d_5_3x3_s2_128/act_quant/FakeQuantWithMinMaxVars", "op": "FakeQuantWithMinMaxVars", "input": ["FeatureExtractor/MobilenetV1/Conv2d_13_pointwise_2_Conv2d_5_3x3_s2_128/Relu6", "FeatureExtractor/MobilenetV1/Conv2d_13_pointwise_2_Conv2d_5_3x3_s2_128/act_quant/min", "FeatureExtractor/MobilenetV1/Conv2d_13_pointwise_2_Conv2d_5_3x3_s2_128/act_quant/max"], "attr": {"narrow_range": {"b": false}, "num_bits": {"i": "8"}}}, {"name": "BoxPredictor_5/Shape", "op": "Shape", "input": ["FeatureExtractor/MobilenetV1/Conv2d_13_pointwise_2_Conv2d_5_3x3_s2_128/act_quant/FakeQuantWithMinMaxVars"], "attr": {"T": {"type": "DT_FLOAT"}, "out_type": {"type": "DT_INT32"}}}, {"name": "BoxPredictor_5/BoxEncodingPredictor/BiasAdd", "op": "_FusedConv2D", "input": ["FeatureExtractor/MobilenetV1/Conv2d_13_pointwise_2_Conv2d_5_3x3_s2_128/act_quant/FakeQuantWithMinMaxVars", "BoxPredictor_5/BoxEncodingPredictor/weights_quant/FakeQuantWithMinMaxVars", "BoxPredictor_5/BoxEncodingPredictor/biases"], "device": "/device:CPU:0", "attr": {"epsilon": {"f": 0.0}, "explicit_paddings": {"list": {}}, "dilations": {"list": {"i": ["1", "1", "1", "1"]}}, "padding": {"s": "U0FNRQ=="}, "T": {"type": "DT_FLOAT"}, "use_cudnn_on_gpu": {"b": true}, "strides": {"list": {"i": ["1", "1", "1", "1"]}}, "fused_ops": {"list": {"s": ["Qmlhc0FkZA=="]}}, "num_args": {"i": "1"}, "data_format": {"s": "TkhXQw=="}}}, {"name": "BoxPredictor_5/ClassPredictor/BiasAdd", "op": "_FusedConv2D", "input": ["FeatureExtractor/MobilenetV1/Conv2d_13_pointwise_2_Conv2d_5_3x3_s2_128/act_quant/FakeQuantWithMinMaxVars", "BoxPredictor_5/ClassPredictor/weights_quant/FakeQuantWithMinMaxVars", "BoxPredictor_5/ClassPredictor/biases"], "device": "/device:CPU:0", "attr": {"T": {"type": "DT_FLOAT"}, "dilations": {"list": {"i": ["1", "1", "1", "1"]}}, "padding": {"s": "U0FNRQ=="}, "num_args": {"i": "1"}, "use_cudnn_on_gpu": {"b": true}, "data_format": {"s": "TkhXQw=="}, "strides": {"list": {"i": ["1", "1", "1", "1"]}}, "explicit_paddings": {"list": {}}, "fused_ops": {"list": {"s": ["Qmlhc0FkZA=="]}}, "epsilon": {"f": 0.0}}}, {"name": "BoxPredictor_5/strided_slice", "op": "StridedSlice", "input": ["BoxPredictor_5/Shape", "Preprocessor/map/strided_slice/stack", "Preprocessor/map/strided_slice/stack_1", "Preprocessor/map/strided_slice/stack_1"], "attr": {"end_mask": {"i": "0"}, "ellipsis_mask": {"i": "0"}, "Index": {"type": "DT_INT32"}, "begin_mask": {"i": "0"}, "T": {"type": "DT_INT32"}, "new_axis_mask": {"i": "0"}, "shrink_axis_mask": {"i": "1"}}}, {"name": "BoxPredictor_5/BoxEncodingPredictor/act_quant/FakeQuantWithMinMaxVars", "op": "FakeQuantWithMinMaxVars", "input": ["BoxPredictor_5/BoxEncodingPredictor/BiasAdd", "BoxPredictor_5/BoxEncodingPredictor/act_quant/min", "BoxPredictor_5/BoxEncodingPredictor/act_quant/max"], "attr": {"narrow_range": {"b": false}, "num_bits": {"i": "8"}}}, {"name": "BoxPredictor_5/ClassPredictor/act_quant/FakeQuantWithMinMaxVars", "op": "FakeQuantWithMinMaxVars", "input": ["BoxPredictor_5/ClassPredictor/BiasAdd", "BoxPredictor_5/ClassPredictor/act_quant/min", "BoxPredictor_5/ClassPredictor/act_quant/max"], "attr": {"narrow_range": {"b": false}, "num_bits": {"i": "8"}}}, {"name": "BoxPredictor_5/Reshape/shape", "op": "Pack", "input": ["BoxPredictor_5/strided_slice", "BoxPredictor_0/Reshape/shape/1", "Preprocessor/map/TensorArrayUnstack/range/delta", "BoxPredictor_0/Reshape/shape/3"], "attr": {"N": {"i": "4"}, "axis": {"i": "0"}, "T": {"type": "DT_INT32"}}}, {"name": "BoxPredictor_5/Reshape_1/shape", "op": "Pack", "input": ["BoxPredictor_5/strided_slice", "BoxPredictor_0/Reshape/shape/1", "BoxPredictor_0/Reshape_1/shape/2"], "attr": {"N": {"i": "3"}, "T": {"type": "DT_INT32"}, "axis": {"i": "0"}}}, {"name": "BoxPredictor_5/Reshape", "op": "Reshape", "input": ["BoxPredictor_5/BoxEncodingPredictor/act_quant/FakeQuantWithMinMaxVars", "BoxPredictor_5/Reshape/shape"], "attr": {"T": {"type": "DT_FLOAT"}, "Tshape": {"type": "DT_INT32"}}}, {"name": "BoxPredictor_5/Reshape_1", "op": "Reshape", "input": ["BoxPredictor_5/ClassPredictor/act_quant/FakeQuantWithMinMaxVars", "BoxPredictor_5/Reshape_1/shape"], "attr": {"T": {"type": "DT_FLOAT"}, "Tshape": {"type": "DT_INT32"}}}, {"name": "concat", "op": "ConcatV2", "input": ["BoxPredictor_0/Reshape", "BoxPredictor_1/Reshape", "BoxPredictor_2/Reshape", "BoxPredictor_3/Reshape", "BoxPredictor_4/Reshape", "BoxPredictor_5/Reshape", "Preprocessor/map/TensorArrayUnstack/range/delta"], "attr": {"N": {"i": "6"}, "T": {"type": "DT_FLOAT"}, "Tidx": {"type": "DT_INT32"}}}, {"name": "concat_1", "op": "ConcatV2", "input": ["BoxPredictor_0/Reshape_1", "BoxPredictor_1/Reshape_1", "BoxPredictor_2/Reshape_1", "BoxPredictor_3/Reshape_1", "BoxPredictor_4/Reshape_1", "BoxPredictor_5/Reshape_1", "Preprocessor/map/TensorArrayUnstack/range/delta"], "attr": {"N": {"i": "6"}, "T": {"type": "DT_FLOAT"}, "Tidx": {"type": "DT_INT32"}}}, {"name": "Squeeze", "op": "Squeeze", "input": ["concat"], "attr": {"squeeze_dims": {"list": {"i": ["2"]}}, "T": {"type": "DT_FLOAT"}}}, {"name": "Postprocessor/convert_scores", "op": "Sigmoid", "input": ["concat_1"], "attr": {"T": {"type": "DT_FLOAT"}}}, {"name": "Postprocessor/Shape", "op": "Shape", "input": ["Squeeze"], "attr": {"out_type": {"type": "DT_INT32"}, "T": {"type": "DT_FLOAT"}}}, {"name": "Postprocessor/Reshape_1", "op": "Reshape", "input": ["Squeeze", "Postprocessor/Reshape/shape"], "attr": {"T": {"type": "DT_FLOAT"}, "Tshape": {"type": "DT_INT32"}}}, {"name": "Postprocessor/Slice", "op": "Slice", "input": ["Postprocessor/convert_scores", "Postprocessor/Slice/begin", "Postprocessor/Slice/size"], "attr": {"T": {"type": "DT_FLOAT"}, "Index": {"type": "DT_INT32"}}}, {"name": "Postprocessor/strided_slice", "op": "StridedSlice", "input": ["Postprocessor/Shape", "Preprocessor/map/strided_slice/stack", "Preprocessor/map/strided_slice/stack_1", "Preprocessor/map/strided_slice/stack_1"], "attr": {"T": {"type": "DT_INT32"}, "begin_mask": {"i": "0"}, "end_mask": {"i": "0"}, "new_axis_mask": {"i": "0"}, "ellipsis_mask": {"i": "0"}, "shrink_axis_mask": {"i": "1"}, "Index": {"type": "DT_INT32"}}}, {"name": "Postprocessor/strided_slice_1", "op": "StridedSlice", "input": ["Postprocessor/Shape", "Preprocessor/map/strided_slice/stack_1", "Postprocessor/strided_slice_1/stack_1", "Preprocessor/map/strided_slice/stack_1"], "attr": {"begin_mask": {"i": "0"}, "new_axis_mask": {"i": "0"}, "shrink_axis_mask": {"i": "1"}, "ellipsis_mask": {"i": "0"}, "end_mask": {"i": "0"}, "Index": {"type": "DT_INT32"}, "T": {"type": "DT_INT32"}}}, {"name": "Postprocessor/Decode/transpose", "op": "Transpose", "input": ["Postprocessor/Reshape_1", "Postprocessor/Decode/get_center_coordinates_and_sizes/transpose/perm"], "attr": {"T": {"type": "DT_FLOAT"}, "Tperm": {"type": "DT_INT32"}}}, {"name": "Postprocessor/Tile/multiples", "op": "Pack", "input": ["Postprocessor/strided_slice", "Preprocessor/map/TensorArrayUnstack/range/delta", "Preprocessor/map/TensorArrayUnstack/range/delta"], "attr": {"T": {"type": "DT_INT32"}, "axis": {"i": "0"}, "N": {"i": "3"}}}, {"name": "Postprocessor/stack", "op": "Pack", "input": ["Postprocessor/strided_slice", "Postprocessor/strided_slice_1", "BoxPredictor_0/Reshape/shape/3"], "attr": {"N": {"i": "3"}, "T": {"type": "DT_INT32"}, "axis": {"i": "0"}}}, {"name": "Postprocessor/Decode/unstack", "op": "Unpack", "input": ["Postprocessor/Decode/transpose"], "attr": {"axis": {"i": "0"}, "T": {"type": "DT_FLOAT"}, "num": {"i": "4"}}}, {"name": "Postprocessor/Tile", "op": "Tile", "input": ["Postprocessor/ExpandDims", "Postprocessor/Tile/multiples"], "attr": {"Tmultiples": {"type": "DT_INT32"}, "T": {"type": "DT_FLOAT"}}}, {"name": "Postprocessor/Decode/truediv", "op": "Mul", "input": ["ConstantFolding/Postprocessor/Decode/truediv_recip", "Postprocessor/Decode/unstack"], "attr": {"T": {"type": "DT_FLOAT"}}}, {"name": "Postprocessor/Decode/truediv_1", "op": "Mul", "input": ["ConstantFolding/Postprocessor/Decode/truediv_recip", "Postprocessor/Decode/unstack:1"], "attr": {"T": {"type": "DT_FLOAT"}}}, {"name": "Postprocessor/Decode/truediv_2", "op": "Mul", "input": ["ConstantFolding/Postprocessor/Decode/truediv_2_recip", "Postprocessor/Decode/unstack:2"], "attr": {"T": {"type": "DT_FLOAT"}}}, {"name": "Postprocessor/Decode/truediv_3", "op": "Mul", "input": ["ConstantFolding/Postprocessor/Decode/truediv_2_recip", "Postprocessor/Decode/unstack:3"], "attr": {"T": {"type": "DT_FLOAT"}}}, {"name": "Postprocessor/Reshape", "op": "Reshape", "input": ["Postprocessor/Tile", "Postprocessor/Reshape/shape"], "attr": {"T": {"type": "DT_FLOAT"}, "Tshape": {"type": "DT_INT32"}}}, {"name": "Postprocessor/Decode/Exp_1", "op": "Exp", "input": ["Postprocessor/Decode/truediv_2"], "attr": {"T": {"type": "DT_FLOAT"}}}, {"name": "Postprocessor/Decode/Exp", "op": "Exp", "input": ["Postprocessor/Decode/truediv_3"], "attr": {"T": {"type": "DT_FLOAT"}}}, {"name": "Postprocessor/Decode/get_center_coordinates_and_sizes/transpose", "op": "Transpose", "input": ["Postprocessor/Reshape", "Postprocessor/Decode/get_center_coordinates_and_sizes/transpose/perm"], "attr": {"Tperm": {"type": "DT_INT32"}, "T": {"type": "DT_FLOAT"}}}, {"name": "Postprocessor/Decode/get_center_coordinates_and_sizes/unstack", "op": "Unpack", "input": ["Postprocessor/Decode/get_center_coordinates_and_sizes/transpose"], "attr": {"num": {"i": "4"}, "T": {"type": "DT_FLOAT"}, "axis": {"i": "0"}}}, {"name": "Postprocessor/Decode/get_center_coordinates_and_sizes/sub_1", "op": "Sub", "input": ["Postprocessor/Decode/get_center_coordinates_and_sizes/unstack:2", "Postprocessor/Decode/get_center_coordinates_and_sizes/unstack"], "attr": {"T": {"type": "DT_FLOAT"}}}, {"name": "Postprocessor/Decode/get_center_coordinates_and_sizes/sub", "op": "Sub", "input": ["Postprocessor/Decode/get_center_coordinates_and_sizes/unstack:3", "Postprocessor/Decode/get_center_coordinates_and_sizes/unstack:1"], "attr": {"T": {"type": "DT_FLOAT"}}}, {"name": "Postprocessor/Decode/get_center_coordinates_and_sizes/truediv", "op": "Mul", "input": ["ConstantFolding/Postprocessor/Decode/get_center_coordinates_and_sizes/truediv_recip", "Postprocessor/Decode/get_center_coordinates_and_sizes/sub_1"], "attr": {"T": {"type": "DT_FLOAT"}}}, {"name": "Postprocessor/Decode/mul_2", "op": "Mul", "input": ["Postprocessor/Decode/get_center_coordinates_and_sizes/sub_1", "Postprocessor/Decode/truediv"], "attr": {"T": {"type": "DT_FLOAT"}}}, {"name": "Postprocessor/Decode/get_center_coordinates_and_sizes/truediv_1", "op": "Mul", "input": ["ConstantFolding/Postprocessor/Decode/get_center_coordinates_and_sizes/truediv_recip", "Postprocessor/Decode/get_center_coordinates_and_sizes/sub"], "attr": {"T": {"type": "DT_FLOAT"}}}, {"name": "Postprocessor/Decode/mul_3", "op": "Mul", "input": ["Postprocessor/Decode/get_center_coordinates_and_sizes/sub", "Postprocessor/Decode/truediv_1"], "attr": {"T": {"type": "DT_FLOAT"}}}, {"name": "Postprocessor/Decode/get_center_coordinates_and_sizes/add", "op": "AddV2", "input": ["Postprocessor/Decode/get_center_coordinates_and_sizes/truediv", "Postprocessor/Decode/get_center_coordinates_and_sizes/unstack"], "attr": {"T": {"type": "DT_FLOAT"}}}, {"name": "Postprocessor/Decode/truediv_4", "op": "Mul", "input": ["Postprocessor/Decode/Exp_1", "Postprocessor/Decode/get_center_coordinates_and_sizes/truediv"], "attr": {"T": {"type": "DT_FLOAT"}}}, {"name": "Postprocessor/Decode/get_center_coordinates_and_sizes/add_1", "op": "AddV2", "input": ["Postprocessor/Decode/get_center_coordinates_and_sizes/truediv_1", "Postprocessor/Decode/get_center_coordinates_and_sizes/unstack:1"], "attr": {"T": {"type": "DT_FLOAT"}}}, {"name": "Postprocessor/Decode/truediv_5", "op": "Mul", "input": ["Postprocessor/Decode/Exp", "Postprocessor/Decode/get_center_coordinates_and_sizes/truediv_1"], "attr": {"T": {"type": "DT_FLOAT"}}}, {"name": "Postprocessor/Decode/add", "op": "AddV2", "input": ["Postprocessor/Decode/get_center_coordinates_and_sizes/add", "Postprocessor/Decode/mul_2"], "attr": {"T": {"type": "DT_FLOAT"}}}, {"name": "Postprocessor/Decode/add_1", "op": "AddV2", "input": ["Postprocessor/Decode/get_center_coordinates_and_sizes/add_1", "Postprocessor/Decode/mul_3"], "attr": {"T": {"type": "DT_FLOAT"}}}, {"name": "Postprocessor/Decode/sub", "op": "Sub", "input": ["Postprocessor/Decode/add", "Postprocessor/Decode/truediv_4"], "attr": {"T": {"type": "DT_FLOAT"}}}, {"name": "Postprocessor/Decode/add_2", "op": "AddV2", "input": ["Postprocessor/Decode/add", "Postprocessor/Decode/truediv_4"], "attr": {"T": {"type": "DT_FLOAT"}}}, {"name": "Postprocessor/Decode/sub_1", "op": "Sub", "input": ["Postprocessor/Decode/add_1", "Postprocessor/Decode/truediv_5"], "attr": {"T": {"type": "DT_FLOAT"}}}, {"name": "Postprocessor/Decode/add_3", "op": "AddV2", "input": ["Postprocessor/Decode/add_1", "Postprocessor/Decode/truediv_5"], "attr": {"T": {"type": "DT_FLOAT"}}}, {"name": "Postprocessor/Decode/stack", "op": "Pack", "input": ["Postprocessor/Decode/sub", "Postprocessor/Decode/sub_1", "Postprocessor/Decode/add_2", "Postprocessor/Decode/add_3"], "attr": {"N": {"i": "4"}, "axis": {"i": "0"}, "T": {"type": "DT_FLOAT"}}}, {"name": "Postprocessor/Decode/transpose_1", "op": "Transpose", "input": ["Postprocessor/Decode/stack", "Postprocessor/Decode/get_center_coordinates_and_sizes/transpose/perm"], "attr": {"T": {"type": "DT_FLOAT"}, "Tperm": {"type": "DT_INT32"}}}, {"name": "Postprocessor/Reshape_2", "op": "Reshape", "input": ["Postprocessor/Decode/transpose_1", "Postprocessor/stack"], "attr": {"Tshape": {"type": "DT_INT32"}, "T": {"type": "DT_FLOAT"}}}, {"name": "Postprocessor/ExpandDims_1", "op": "ExpandDims", "input": ["Postprocessor/Reshape_2", "BoxPredictor_0/Reshape_1/shape/2"], "attr": {"Tdim": {"type": "DT_INT32"}, "T": {"type": "DT_FLOAT"}}}], "versions": {}}, "weightsManifest": [{"paths": ["group1-shard1of2.bin", "group1-shard2of2.bin"], "weights": [{"name": "Preprocessor/mul/x", "shape": [], "dtype": "float32", "quantization": {"min": 0.007843137718737125, "scale": 1.0, "dtype": "uint8"}}, {"name": "Preprocessor/sub/y", "shape": [], "dtype": "float32", "quantization": {"min": 1.0, "scale": 1.0, "dtype": "uint8"}}, {"name": "Preprocessor/map/strided_slice/stack", "shape": [1], "dtype": "int32"}, {"name": "Preprocessor/map/strided_slice/stack_1", "shape": [1], "dtype": "int32"}, {"name": "Preprocessor/map/TensorArrayUnstack/range/start", "shape": [], "dtype": "int32"}, {"name": "Preprocessor/map/TensorArrayUnstack/range/delta", "shape": [], "dtype": "int32"}, {"name": "BoxPredictor_4/ClassPredictor/act_quant/max", "shape": [], "dtype": "float32", "quantization": {"min": 1.7114508152008057, "scale": 1.0, "dtype": "uint8"}}, {"name": "BoxPredictor_3/BoxEncodingPredictor/act_quant/min", "shape": [], "dtype": "float32", "quantization": {"min": -3.787829875946045, "scale": 1.0, "dtype": "uint8"}}, {"name": "BoxPredictor_5/BoxEncodingPredictor/act_quant/min", "shape": [], "dtype": "float32", "quantization": {"min": -3.2186386585235596, "scale": 1.0, "dtype": "uint8"}}, {"name": "BoxPredictor_5/BoxEncodingPredictor/act_quant/max", "shape": [], "dtype": "float32", "quantization": {"min": 2.0926408767700195, "scale": 1.0, "dtype": "uint8"}}, {"name": "FeatureExtractor/MobilenetV1/MobilenetV1/Conv2d_11_pointwise/weights_quant/FakeQuantWithMinMaxVars", "shape": [1, 1, 512, 512], "dtype": "float32", "quantization": {"min": -0.26888053136713364, "scale": 0.002168391381993013, "dtype": "uint8"}}, {"name": "FeatureExtractor/MobilenetV1/MobilenetV1/Conv2d_11_pointwise/act_quant/min", "shape": [], "dtype": "float32", "quantization": {"min": 0.0, "scale": 1.0, "dtype": "uint8"}}, {"name": "BoxPredictor_3/BoxEncodingPredictor/act_quant/max", "shape": [], "dtype": "float32", "quantization": {"min": 3.862438440322876, "scale": 1.0, "dtype": "uint8"}}, {"name": "FeatureExtractor/MobilenetV1/MobilenetV1/Conv2d_11_pointwise/act_quant/max", "shape": [], "dtype": "float32", "quantization": {"min": 6.000030517578125, "scale": 1.0, "dtype": "uint8"}}, {"name": "FeatureExtractor/MobilenetV1/MobilenetV1/Conv2d_12_depthwise/weights_quant/FakeQuantWithMinMaxVars", "shape": [3, 3, 512, 1], "dtype": "float32", "quantization": {"min": -2.478556028066897, "scale": 0.02316407502866259, "dtype": "uint8"}}, {"name": "FeatureExtractor/MobilenetV1/MobilenetV1/Conv2d_12_pointwise/weights_quant/FakeQuantWithMinMaxVars", "shape": [1, 1, 512, 1024], "dtype": "float32", "quantization": {"min": -0.32137757738431294, "scale": 0.003181956211725871, "dtype": "uint8"}}, {"name": "BoxPredictor_3/ClassPredictor/weights_quant/FakeQuantWithMinMaxVars", "shape": [1, 1, 256, 12], "dtype": "float32", "quantization": {"min": -0.21312754276920767, "scale": 0.002767890165833866, "dtype": "uint8"}}, {"name": "BoxPredictor_3/ClassPredictor/act_quant/min", "shape": [], "dtype": "float32", "quantization": {"min": -5.588636875152588, "scale": 1.0, "dtype": "uint8"}}, {"name": "FeatureExtractor/MobilenetV1/MobilenetV1/Conv2d_13_depthwise/weights_quant/FakeQuantWithMinMaxVars", "shape": [3, 3, 1024, 1], "dtype": "float32", "quantization": {"min": -2.363201483558206, "scale": 0.01860788569730871, "dtype": "uint8"}}, {"name": "BoxPredictor_4/ClassPredictor/weights_quant/FakeQuantWithMinMaxVars", "shape": [1, 1, 256, 12], "dtype": "float32", "quantization": {"min": -0.10184616171846203, "scale": 0.0010720648601943372, "dtype": "uint8"}}, {"name": "BoxPredictor_3/ClassPredictor/act_quant/max", "shape": [], "dtype": "float32", "quantization": {"min": 4.03476619720459, "scale": 1.0, "dtype": "uint8"}}, {"name": "FeatureExtractor/MobilenetV1/MobilenetV1/Conv2d_13_pointwise/weights_quant/FakeQuantWithMinMaxVars", "shape": [1, 1, 1024, 1024], "dtype": "float32", "quantization": {"min": -0.20211133565388473, "scale": 0.0017574898752511716, "dtype": "uint8"}}, {"name": "FeatureExtractor/MobilenetV1/Conv2d_13_pointwise_1_Conv2d_2_1x1_256/weights_quant/FakeQuantWithMinMaxVars", "shape": [1, 1, 1024, 256], "dtype": "float32", "quantization": {"min": -0.1284021957247865, "scale": 0.0014591158605089375, "dtype": "uint8"}}, {"name": "FeatureExtractor/MobilenetV1/Conv2d_13_pointwise_1_Conv2d_2_1x1_256/act_quant/min", "shape": [], "dtype": "float32", "quantization": {"min": -7.4193434715271, "scale": 1.0, "dtype": "uint8"}}, {"name": "BoxPredictor_4/ClassPredictor/act_quant/min", "shape": [], "dtype": "float32", "quantization": {"min": -4.997222900390625, "scale": 1.0, "dtype": "uint8"}}, {"name": "FeatureExtractor/MobilenetV1/Conv2d_13_pointwise_1_Conv2d_2_1x1_256/act_quant/max", "shape": [], "dtype": "float32", "quantization": {"min": 7.219674110412598, "scale": 1.0, "dtype": "uint8"}}, {"name": "BoxPredictor_4/BoxEncodingPredictor/weights_quant/FakeQuantWithMinMaxVars", "shape": [1, 1, 256, 24], "dtype": "float32", "quantization": {"min": -0.09373913158973059, "scale": 0.0007877237948716856, "dtype": "uint8"}}, {"name": "FeatureExtractor/MobilenetV1/Conv2d_13_pointwise_2_Conv2d_2_3x3_s2_512/weights_quant/FakeQuantWithMinMaxVars", "shape": [3, 3, 256, 512], "dtype": "float32", "quantization": {"min": -0.07400667638170953, "scale": 0.0006066121014894224, "dtype": "uint8"}}, {"name": "FeatureExtractor/MobilenetV1/Conv2d_13_pointwise_2_Conv2d_2_3x3_s2_512/act_quant/min", "shape": [], "dtype": "float32", "quantization": {"min": -8.420381546020508, "scale": 1.0, "dtype": "uint8"}}, {"name": "BoxPredictor_4/BoxEncodingPredictor/act_quant/min", "shape": [], "dtype": "float32", "quantization": {"min": -3.12750506401062, "scale": 1.0, "dtype": "uint8"}}, {"name": "FeatureExtractor/MobilenetV1/Conv2d_13_pointwise_2_Conv2d_2_3x3_s2_512/act_quant/max", "shape": [], "dtype": "float32", "quantization": {"min": 7.520880222320557, "scale": 1.0, "dtype": "uint8"}}, {"name": "BoxPredictor_4/BoxEncodingPredictor/act_quant/max", "shape": [], "dtype": "float32", "quantization": {"min": 2.4820311069488525, "scale": 1.0, "dtype": "uint8"}}, {"name": "FeatureExtractor/MobilenetV1/Conv2d_13_pointwise_1_Conv2d_3_1x1_128/weights_quant/FakeQuantWithMinMaxVars", "shape": [1, 1, 512, 128], "dtype": "float32", "quantization": {"min": -0.28935090583913464, "scale": 0.0024521263206706326, "dtype": "uint8"}}, {"name": "FeatureExtractor/MobilenetV1/Conv2d_13_pointwise_1_Conv2d_3_1x1_128/act_quant/min", "shape": [], "dtype": "float32", "quantization": {"min": -7.630817413330078, "scale": 1.0, "dtype": "uint8"}}, {"name": "FeatureExtractor/MobilenetV1/Conv2d_13_pointwise_1_Conv2d_3_1x1_128/act_quant/max", "shape": [], "dtype": "float32", "quantization": {"min": 6.203995227813721, "scale": 1.0, "dtype": "uint8"}}, {"name": "FeatureExtractor/MobilenetV1/Conv2d_13_pointwise_2_Conv2d_3_3x3_s2_256/weights_quant/FakeQuantWithMinMaxVars", "shape": [3, 3, 128, 256], "dtype": "float32", "quantization": {"min": -0.07835538211990806, "scale": 0.0006370356269911224, "dtype": "uint8"}}, {"name": "FeatureExtractor/MobilenetV1/Conv2d_13_pointwise_2_Conv2d_3_3x3_s2_256/act_quant/min", "shape": [], "dtype": "float32", "quantization": {"min": -4.688434600830078, "scale": 1.0, "dtype": "uint8"}}, {"name": "FeatureExtractor/MobilenetV1/Conv2d_13_pointwise_2_Conv2d_3_3x3_s2_256/act_quant/max", "shape": [], "dtype": "float32", "quantization": {"min": 4.095175266265869, "scale": 1.0, "dtype": "uint8"}}, {"name": "FeatureExtractor/MobilenetV1/Conv2d_13_pointwise_1_Conv2d_4_1x1_128/weights_quant/FakeQuantWithMinMaxVars", "shape": [1, 1, 256, 128], "dtype": "float32", "quantization": {"min": -0.29210302934927096, "scale": 0.0025400263421675737, "dtype": "uint8"}}, {"name": "FeatureExtractor/MobilenetV1/Conv2d_13_pointwise_1_Conv2d_4_1x1_128/act_quant/min", "shape": [], "dtype": "float32", "quantization": {"min": -3.818737506866455, "scale": 1.0, "dtype": "uint8"}}, {"name": "FeatureExtractor/MobilenetV1/Conv2d_13_pointwise_1_Conv2d_4_1x1_128/act_quant/max", "shape": [], "dtype": "float32", "quantization": {"min": 4.829381942749023, "scale": 1.0, "dtype": "uint8"}}, {"name": "FeatureExtractor/MobilenetV1/Conv2d_13_pointwise_2_Conv2d_4_3x3_s2_256/weights_quant/FakeQuantWithMinMaxVars", "shape": [3, 3, 128, 256], "dtype": "float32", "quantization": {"min": -0.07286062880473979, "scale": 0.0006227404171345281, "dtype": "uint8"}}, {"name": "FeatureExtractor/MobilenetV1/Conv2d_13_pointwise_2_Conv2d_4_3x3_s2_256/act_quant/min", "shape": [], "dtype": "float32", "quantization": {"min": -3.370213031768799, "scale": 1.0, "dtype": "uint8"}}, {"name": "FeatureExtractor/MobilenetV1/Conv2d_13_pointwise_2_Conv2d_4_3x3_s2_256/act_quant/max", "shape": [], "dtype": "float32", "quantization": {"min": 3.9571897983551025, "scale": 1.0, "dtype": "uint8"}}, {"name": "FeatureExtractor/MobilenetV1/Conv2d_13_pointwise_1_Conv2d_5_1x1_64/weights_quant/FakeQuantWithMinMaxVars", "shape": [1, 1, 256, 64], "dtype": "float32", "quantization": {"min": -0.1305114416515126, "scale": 0.0011757787536172306, "dtype": "uint8"}}, {"name": "FeatureExtractor/MobilenetV1/Conv2d_13_pointwise_1_Conv2d_5_1x1_64/act_quant/min", "shape": [], "dtype": "float32", "quantization": {"min": -3.4512176513671875, "scale": 1.0, "dtype": "uint8"}}, {"name": "BoxPredictor_0/BoxEncodingPredictor/biases", "shape": [12], "dtype": "float32", "quantization": {"min": -0.010195439732542225, "scale": 0.00046342907875191933, "dtype": "uint8"}}, {"name": "FeatureExtractor/MobilenetV1/Conv2d_13_pointwise_1_Conv2d_5_1x1_64/act_quant/max", "shape": [], "dtype": "float32", "quantization": {"min": 3.908283233642578, "scale": 1.0, "dtype": "uint8"}}, {"name": "BoxPredictor_0/Reshape/shape/1", "shape": [], "dtype": "int32"}, {"name": "BoxPredictor_0/Reshape/shape/3", "shape": [], "dtype": "int32"}, {"name": "BoxPredictor_0/ClassPredictor/biases", "shape": [6], "dtype": "float32", "quantization": {"min": -4.61997127532959, "scale": 0.0007367545483159084, "dtype": "uint8"}}, {"name": "BoxPredictor_0/Reshape_1/shape/2", "shape": [], "dtype": "int32"}, {"name": "BoxPredictor_1/BoxEncodingPredictor/biases", "shape": [24], "dtype": "float32", "quantization": {"min": -0.035626817976727204, "scale": 0.0008482575708744572, "dtype": "uint8"}}, {"name": "BoxPredictor_1/ClassPredictor/biases", "shape": [12], "dtype": "float32", "quantization": {"min": -4.61155366897583, "scale": 0.00298157953748516, "dtype": "uint8"}}, {"name": "FeatureExtractor/MobilenetV1/Conv2d_13_pointwise_2_Conv2d_5_3x3_s2_128/weights_quant/FakeQuantWithMinMaxVars", "shape": [3, 3, 64, 128], "dtype": "float32", "quantization": {"min": -0.18110430684744144, "scale": 0.0013029086823556938, "dtype": "uint8"}}, {"name": "BoxPredictor_2/BoxEncodingPredictor/biases", "shape": [24], "dtype": "float32", "quantization": {"min": -0.030416970378627964, "scale": 0.0016008931778225244, "dtype": "uint8"}}, {"name": "BoxPredictor_2/ClassPredictor/biases", "shape": [12], "dtype": "float32", "quantization": {"min": -4.605049133300781, "scale": 0.0037336901122448493, "dtype": "uint8"}}, {"name": "FeatureExtractor/MobilenetV1/Conv2d_13_pointwise_2_Conv2d_5_3x3_s2_128/act_quant/min", "shape": [], "dtype": "float32", "quantization": {"min": -2.910506010055542, "scale": 1.0, "dtype": "uint8"}}, {"name": "BoxPredictor_3/BoxEncodingPredictor/biases", "shape": [24], "dtype": "float32", "quantization": {"min": -0.11631089726499484, "scale": 0.001011399106652129, "dtype": "uint8"}}, {"name": "FeatureExtractor/MobilenetV1/Conv2d_13_pointwise_2_Conv2d_5_3x3_s2_128/act_quant/max", "shape": [], "dtype": "float32", "quantization": {"min": 2.670289993286133, "scale": 1.0, "dtype": "uint8"}}, {"name": "BoxPredictor_3/ClassPredictor/biases", "shape": [12], "dtype": "float32", "quantization": {"min": -4.602289199829102, "scale": 0.00150756648942536, "dtype": "uint8"}}, {"name": "BoxPredictor_4/BoxEncodingPredictor/biases", "shape": [24], "dtype": "float32", "quantization": {"min": -0.11197913708347901, "scale": 0.0006052926328836703, "dtype": "uint8"}}, {"name": "BoxPredictor_4/ClassPredictor/biases", "shape": [12], "dtype": "float32", "quantization": {"min": -4.600976467132568, "scale": 0.0007241286483465456, "dtype": "uint8"}}, {"name": "BoxPredictor_5/BoxEncodingPredictor/weights_quant/FakeQuantWithMinMaxVars", "shape": [1, 1, 128, 24], "dtype": "float32", "quantization": {"min": -0.14796447362385542, "scale": 0.00106449261599896, "dtype": "uint8"}}, {"name": "BoxPredictor_5/BoxEncodingPredictor/biases", "shape": [24], "dtype": "float32", "quantization": {"min": -0.31222749726445065, "scale": 0.0015456806795269835, "dtype": "uint8"}}, {"name": "BoxPredictor_5/ClassPredictor/biases", "shape": [12], "dtype": "float32", "quantization": {"min": -4.599999904632568, "scale": 0.002473127140718348, "dtype": "uint8"}}, {"name": "Postprocessor/strided_slice_1/stack_1", "shape": [1], "dtype": "int32"}, {"name": "Postprocessor/Reshape/shape", "shape": [2], "dtype": "int32"}, {"name": "Postprocessor/Decode/get_center_coordinates_and_sizes/transpose/perm", "shape": [2], "dtype": "int32"}, {"name": "Postprocessor/Slice/begin", "shape": [3], "dtype": "int32"}, {"name": "Postprocessor/Slice/size", "shape": [3], "dtype": "int32"}, {"name": "BoxPredictor_5/ClassPredictor/act_quant/min", "shape": [], "dtype": "float32", "quantization": {"min": -4.8264570236206055, "scale": 1.0, "dtype": "uint8"}}, {"name": "BoxPredictor_5/ClassPredictor/act_quant/max", "shape": [], "dtype": "float32", "quantization": {"min": 3.1590404510498047, "scale": 1.0, "dtype": "uint8"}}, {"name": "BoxPredictor_5/ClassPredictor/weights_quant/FakeQuantWithMinMaxVars", "shape": [1, 1, 128, 12], "dtype": "float32", "quantization": {"min": -0.12481823563575746, "scale": 0.001223708192507426, "dtype": "uint8"}}, {"name": "FeatureExtractor/MobilenetV1/MobilenetV1/Conv2d_0/BatchNorm_Fold/bias", "shape": [32], "dtype": "float32", "quantization": {"min": -0.5261309862136841, "scale": 0.00515814692366357, "dtype": "uint8"}}, {"name": "FeatureExtractor/MobilenetV1/MobilenetV1/Conv2d_1_depthwise/BatchNorm_Fold/bias", "shape": [32], "dtype": "float32", "quantization": {"min": -1.5662070582894718, "scale": 0.012047746602226706, "dtype": "uint8"}}, {"name": "FeatureExtractor/MobilenetV1/MobilenetV1/Conv2d_1_pointwise/BatchNorm_Fold/bias", "shape": [64], "dtype": "float32", "quantization": {"min": -1.6892406131706985, "scale": 0.010759494351405724, "dtype": "uint8"}}, {"name": "FeatureExtractor/MobilenetV1/MobilenetV1/Conv2d_2_depthwise/BatchNorm_Fold/bias", "shape": [64], "dtype": "float32", "quantization": {"min": -1.2375769512326111, "scale": 0.010487940264683145, "dtype": "uint8"}}, {"name": "FeatureExtractor/MobilenetV1/MobilenetV1/Conv2d_2_pointwise/BatchNorm_Fold/bias", "shape": [128], "dtype": "float32", "quantization": {"min": -1.8927088064305921, "scale": 0.017525081541024, "dtype": "uint8"}}, {"name": "FeatureExtractor/MobilenetV1/MobilenetV1/Conv2d_3_depthwise/BatchNorm_Fold/bias", "shape": [128], "dtype": "float32", "quantization": {"min": -1.566561825135175, "scale": 0.01103212552912095, "dtype": "uint8"}}, {"name": "FeatureExtractor/MobilenetV1/MobilenetV1/Conv2d_3_pointwise/BatchNorm_Fold/bias", "shape": [128], "dtype": "float32", "quantization": {"min": -2.7747431353026744, "scale": 0.019962180829515643, "dtype": "uint8"}}, {"name": "FeatureExtractor/MobilenetV1/MobilenetV1/Conv2d_4_depthwise/BatchNorm_Fold/bias", "shape": [128], "dtype": "float32", "quantization": {"min": -1.3415623440462, "scale": 0.010399708093381395, "dtype": "uint8"}}, {"name": "FeatureExtractor/MobilenetV1/MobilenetV1/Conv2d_4_pointwise/BatchNorm_Fold/bias", "shape": [256], "dtype": "float32", "quantization": {"min": -1.7984130260991116, "scale": 0.01405010176639931, "dtype": "uint8"}}, {"name": "FeatureExtractor/MobilenetV1/MobilenetV1/Conv2d_5_depthwise/BatchNorm_Fold/bias", "shape": [256], "dtype": "float32", "quantization": {"min": -0.9789440220477534, "scale": 0.008663221434050915, "dtype": "uint8"}}, {"name": "FeatureExtractor/MobilenetV1/MobilenetV1/Conv2d_5_pointwise/BatchNorm_Fold/bias", "shape": [256], "dtype": "float32", "quantization": {"min": -3.1501235961914062, "scale": 0.02058904311236213, "dtype": "uint8"}}, {"name": "FeatureExtractor/MobilenetV1/MobilenetV1/Conv2d_6_depthwise/BatchNorm_Fold/bias", "shape": [256], "dtype": "float32", "quantization": {"min": -1.1374606735566082, "scale": 0.008956383256351246, "dtype": "uint8"}}, {"name": "FeatureExtractor/MobilenetV1/MobilenetV1/Conv2d_6_pointwise/BatchNorm_Fold/bias", "shape": [512], "dtype": "float32", "quantization": {"min": -1.6888091629626705, "scale": 0.016238549643871832, "dtype": "uint8"}}, {"name": "FeatureExtractor/MobilenetV1/MobilenetV1/Conv2d_7_depthwise/BatchNorm_Fold/bias", "shape": [512], "dtype": "float32", "quantization": {"min": -1.192155819313199, "scale": 0.009387053695379519, "dtype": "uint8"}}, {"name": "FeatureExtractor/MobilenetV1/MobilenetV1/Conv2d_7_pointwise/BatchNorm_Fold/bias", "shape": [512], "dtype": "float32", "quantization": {"min": -2.634187128964592, "scale": 0.0201082986943862, "dtype": "uint8"}}, {"name": "FeatureExtractor/MobilenetV1/MobilenetV1/Conv2d_8_depthwise/BatchNorm_Fold/bias", "shape": [512], "dtype": "float32", "quantization": {"min": -1.2303734597037819, "scale": 0.008980828173020306, "dtype": "uint8"}}, {"name": "FeatureExtractor/MobilenetV1/MobilenetV1/Conv2d_8_pointwise/BatchNorm_Fold/bias", "shape": [512], "dtype": "float32", "quantization": {"min": -1.9610605482961618, "scale": 0.016905694381863463, "dtype": "uint8"}}, {"name": "FeatureExtractor/MobilenetV1/MobilenetV1/Conv2d_9_depthwise/BatchNorm_Fold/bias", "shape": [512], "dtype": "float32", "quantization": {"min": -1.0279840118744794, "scale": 0.008357593592475442, "dtype": "uint8"}}, {"name": "FeatureExtractor/MobilenetV1/MobilenetV1/Conv2d_9_pointwise/BatchNorm_Fold/bias", "shape": [512], "dtype": "float32", "quantization": {"min": -1.745246540331373, "scale": 0.01332249267428529, "dtype": "uint8"}}, {"name": "FeatureExtractor/MobilenetV1/MobilenetV1/Conv2d_10_depthwise/BatchNorm_Fold/bias", "shape": [512], "dtype": "float32", "quantization": {"min": -1.3048550661872413, "scale": 0.010438840529497931, "dtype": "uint8"}}, {"name": "FeatureExtractor/MobilenetV1/MobilenetV1/Conv2d_10_pointwise/BatchNorm_Fold/bias", "shape": [512], "dtype": "float32", "quantization": {"min": -1.4690982397864847, "scale": 0.01104585142696605, "dtype": "uint8"}}, {"name": "FeatureExtractor/MobilenetV1/MobilenetV1/Conv2d_11_depthwise/BatchNorm_Fold/bias", "shape": [512], "dtype": "float32", "quantization": {"min": -1.3278268645791447, "scale": 0.009484477604136747, "dtype": "uint8"}}, {"name": "FeatureExtractor/MobilenetV1/MobilenetV1/Conv2d_11_pointwise/BatchNorm_Fold/bias", "shape": [512], "dtype": "float32", "quantization": {"min": -1.3989905866922117, "scale": 0.010679317455665738, "dtype": "uint8"}}, {"name": "FeatureExtractor/MobilenetV1/MobilenetV1/Conv2d_12_depthwise/BatchNorm_Fold/bias", "shape": [512], "dtype": "float32", "quantization": {"min": -1.341807972683626, "scale": 0.010088781749500947, "dtype": "uint8"}}, {"name": "FeatureExtractor/MobilenetV1/MobilenetV1/Conv2d_12_pointwise/BatchNorm_Fold/bias", "shape": [1024], "dtype": "float32", "quantization": {"min": -1.282011285015181, "scale": 0.011981413878646551, "dtype": "uint8"}}, {"name": "FeatureExtractor/MobilenetV1/MobilenetV1/Conv2d_13_depthwise/BatchNorm_Fold/bias", "shape": [1024], "dtype": "float32", "quantization": {"min": -0.965561045852362, "scale": 0.00928424082550348, "dtype": "uint8"}}, {"name": "FeatureExtractor/MobilenetV1/MobilenetV1/Conv2d_13_pointwise/BatchNorm_Fold/bias", "shape": [1024], "dtype": "float32", "quantization": {"min": -1.5366465110404819, "scale": 0.010176466960532992, "dtype": "uint8"}}, {"name": "FeatureExtractor/MobilenetV1/Conv2d_13_pointwise_1_Conv2d_2_1x1_256/BatchNorm_Fold/bias", "shape": [256], "dtype": "float32", "quantization": {"min": -1.0489379597645179, "scale": 0.013277695693221746, "dtype": "uint8"}}, {"name": "FeatureExtractor/MobilenetV1/Conv2d_13_pointwise_2_Conv2d_2_3x3_s2_512/BatchNorm_Fold/bias", "shape": [512], "dtype": "float32", "quantization": {"min": -0.6913301921358296, "scale": 0.010318361076654172, "dtype": "uint8"}}, {"name": "FeatureExtractor/MobilenetV1/Conv2d_13_pointwise_1_Conv2d_3_1x1_128/BatchNorm_Fold/bias", "shape": [128], "dtype": "float32", "quantization": {"min": -0.9769021889742684, "scale": 0.015506383951972513, "dtype": "uint8"}}, {"name": "FeatureExtractor/MobilenetV1/Conv2d_13_pointwise_2_Conv2d_3_3x3_s2_256/BatchNorm_Fold/bias", "shape": [256], "dtype": "float32", "quantization": {"min": -0.48725591687595143, "scale": 0.008120931947932524, "dtype": "uint8"}}, {"name": "FeatureExtractor/MobilenetV1/Conv2d_13_pointwise_1_Conv2d_4_1x1_128/BatchNorm_Fold/bias", "shape": [128], "dtype": "float32", "quantization": {"min": -2.4328743046405266, "scale": 0.019156490587720683, "dtype": "uint8"}}, {"name": "FeatureExtractor/MobilenetV1/Conv2d_13_pointwise_2_Conv2d_4_3x3_s2_256/BatchNorm_Fold/bias", "shape": [256], "dtype": "float32", "quantization": {"min": -0.22853157216427372, "scale": 0.006176528977412803, "dtype": "uint8"}}, {"name": "FeatureExtractor/MobilenetV1/Conv2d_13_pointwise_1_Conv2d_5_1x1_64/BatchNorm_Fold/bias", "shape": [64], "dtype": "float32", "quantization": {"min": -1.5277819072498995, "scale": 0.010991236742805032, "dtype": "uint8"}}, {"name": "FeatureExtractor/MobilenetV1/Conv2d_13_pointwise_2_Conv2d_5_3x3_s2_128/BatchNorm_Fold/bias", "shape": [128], "dtype": "float32", "quantization": {"min": -0.958169800159978, "scale": 0.016520168968275482, "dtype": "uint8"}}, {"name": "FeatureExtractor/MobilenetV1/MobilenetV1/Conv2d_0/weights_quant/FakeQuantWithMinMaxVars", "shape": [3, 3, 3, 32], "dtype": "float32", "quantization": {"min": -0.9047090965158798, "scale": 0.007732556380477606, "dtype": "uint8"}}, {"name": "FeatureExtractor/MobilenetV1/MobilenetV1/Conv2d_0/act_quant/max", "shape": [], "dtype": "float32", "quantization": {"min": 5.999330043792725, "scale": 1.0, "dtype": "uint8"}}, {"name": "FeatureExtractor/MobilenetV1/MobilenetV1/Conv2d_1_depthwise/weights_quant/FakeQuantWithMinMaxVars", "shape": [3, 3, 32, 1], "dtype": "float32", "quantization": {"min": -3.589308172113755, "scale": 0.02545608632704791, "dtype": "uint8"}}, {"name": "FeatureExtractor/MobilenetV1/MobilenetV1/Conv2d_1_depthwise/act_quant/max", "shape": [], "dtype": "float32", "quantization": {"min": 5.999662399291992, "scale": 1.0, "dtype": "uint8"}}, {"name": "BoxPredictor_0/BoxEncodingPredictor/weights_quant/FakeQuantWithMinMaxVars", "shape": [1, 1, 512, 12], "dtype": "float32", "quantization": {"min": -0.1590259045946832, "scale": 0.0013828339529972451, "dtype": "uint8"}}, {"name": "FeatureExtractor/MobilenetV1/MobilenetV1/Conv2d_1_pointwise/weights_quant/FakeQuantWithMinMaxVars", "shape": [1, 1, 32, 64], "dtype": "float32", "quantization": {"min": -2.285556216333427, "scale": 0.014465545672996372, "dtype": "uint8"}}, {"name": "BoxPredictor_0/BoxEncodingPredictor/act_quant/min", "shape": [], "dtype": "float32", "quantization": {"min": -5.1746673583984375, "scale": 1.0, "dtype": "uint8"}}, {"name": "FeatureExtractor/MobilenetV1/MobilenetV1/Conv2d_1_pointwise/act_quant/max", "shape": [], "dtype": "float32", "quantization": {"min": 5.991257190704346, "scale": 1.0, "dtype": "uint8"}}, {"name": "BoxPredictor_0/BoxEncodingPredictor/act_quant/max", "shape": [], "dtype": "float32", "quantization": {"min": 4.814713001251221, "scale": 1.0, "dtype": "uint8"}}, {"name": "FeatureExtractor/MobilenetV1/MobilenetV1/Conv2d_2_depthwise/weights_quant/FakeQuantWithMinMaxVars", "shape": [3, 3, 64, 1], "dtype": "float32", "quantization": {"min": -3.716117140826057, "scale": 0.025806369033514284, "dtype": "uint8"}}, {"name": "FeatureExtractor/MobilenetV1/MobilenetV1/Conv2d_2_depthwise/act_quant/max", "shape": [], "dtype": "float32", "quantization": {"min": 5.9995856285095215, "scale": 1.0, "dtype": "uint8"}}, {"name": "FeatureExtractor/MobilenetV1/MobilenetV1/Conv2d_2_pointwise/weights_quant/FakeQuantWithMinMaxVars", "shape": [1, 1, 64, 128], "dtype": "float32", "quantization": {"min": -1.2761868098202873, "scale": 0.010209494478562299, "dtype": "uint8"}}, {"name": "FeatureExtractor/MobilenetV1/MobilenetV1/Conv2d_2_pointwise/act_quant/max", "shape": [], "dtype": "float32", "quantization": {"min": 5.9955620765686035, "scale": 1.0, "dtype": "uint8"}}, {"name": "BoxPredictor_0/ClassPredictor/weights_quant/FakeQuantWithMinMaxVars", "shape": [1, 1, 512, 6], "dtype": "float32", "quantization": {"min": -0.18121236632851992, "scale": 0.0020592314355513627, "dtype": "uint8"}}, {"name": "FeatureExtractor/MobilenetV1/MobilenetV1/Conv2d_3_depthwise/weights_quant/FakeQuantWithMinMaxVars", "shape": [3, 3, 128, 1], "dtype": "float32", "quantization": {"min": -3.1404246021719544, "scale": 0.023262404460532994, "dtype": "uint8"}}, {"name": "FeatureExtractor/MobilenetV1/MobilenetV1/Conv2d_3_depthwise/act_quant/max", "shape": [], "dtype": "float32", "quantization": {"min": 5.999516487121582, "scale": 1.0, "dtype": "uint8"}}, {"name": "BoxPredictor_0/ClassPredictor/act_quant/min", "shape": [], "dtype": "float32", "quantization": {"min": -12.209071159362793, "scale": 1.0, "dtype": "uint8"}}, {"name": "BoxPredictor_0/ClassPredictor/act_quant/max", "shape": [], "dtype": "float32", "quantization": {"min": 0.54512619972229, "scale": 1.0, "dtype": "uint8"}}, {"name": "FeatureExtractor/MobilenetV1/MobilenetV1/Conv2d_3_pointwise/weights_quant/FakeQuantWithMinMaxVars", "shape": [1, 1, 128, 128], "dtype": "float32", "quantization": {"min": -0.9253930765039781, "scale": 0.0077116089708664836, "dtype": "uint8"}}, {"name": "FeatureExtractor/MobilenetV1/MobilenetV1/Conv2d_3_pointwise/act_quant/max", "shape": [], "dtype": "float32", "quantization": {"min": 5.9966044425964355, "scale": 1.0, "dtype": "uint8"}}, {"name": "FeatureExtractor/MobilenetV1/MobilenetV1/Conv2d_4_depthwise/weights_quant/FakeQuantWithMinMaxVars", "shape": [3, 3, 128, 1], "dtype": "float32", "quantization": {"min": -2.5312177770278033, "scale": 0.024338632471421186, "dtype": "uint8"}}, {"name": "FeatureExtractor/MobilenetV1/MobilenetV1/Conv2d_4_depthwise/act_quant/max", "shape": [], "dtype": "float32", "quantization": {"min": 5.999607086181641, "scale": 1.0, "dtype": "uint8"}}, {"name": "BoxPredictor_1/BoxEncodingPredictor/weights_quant/FakeQuantWithMinMaxVars", "shape": [1, 1, 1024, 24], "dtype": "float32", "quantization": {"min": -0.23548042984569775, "scale": 0.0018688923003626805, "dtype": "uint8"}}, {"name": "FeatureExtractor/MobilenetV1/MobilenetV1/Conv2d_4_pointwise/weights_quant/FakeQuantWithMinMaxVars", "shape": [1, 1, 128, 256], "dtype": "float32", "quantization": {"min": -1.393884563446045, "scale": 0.008935157457987468, "dtype": "uint8"}}, {"name": "FeatureExtractor/MobilenetV1/MobilenetV1/Conv2d_4_pointwise/act_quant/max", "shape": [], "dtype": "float32", "quantization": {"min": 5.998831272125244, "scale": 1.0, "dtype": "uint8"}}, {"name": "BoxPredictor_1/BoxEncodingPredictor/act_quant/min", "shape": [], "dtype": "float32", "quantization": {"min": -11.829170227050781, "scale": 1.0, "dtype": "uint8"}}, {"name": "FeatureExtractor/MobilenetV1/MobilenetV1/Conv2d_5_depthwise/weights_quant/FakeQuantWithMinMaxVars", "shape": [3, 3, 256, 1], "dtype": "float32", "quantization": {"min": -3.067534098905676, "scale": 0.02018114538753734, "dtype": "uint8"}}, {"name": "BoxPredictor_1/BoxEncodingPredictor/act_quant/max", "shape": [], "dtype": "float32", "quantization": {"min": 14.302549362182617, "scale": 1.0, "dtype": "uint8"}}, {"name": "FeatureExtractor/MobilenetV1/MobilenetV1/Conv2d_5_pointwise/weights_quant/FakeQuantWithMinMaxVars", "shape": [1, 1, 256, 256], "dtype": "float32", "quantization": {"min": -0.5020328147738589, "scale": 0.004605805640127145, "dtype": "uint8"}}, {"name": "FeatureExtractor/MobilenetV1/MobilenetV1/Conv2d_5_pointwise/act_quant/max", "shape": [], "dtype": "float32", "quantization": {"min": 5.9974164962768555, "scale": 1.0, "dtype": "uint8"}}, {"name": "FeatureExtractor/MobilenetV1/MobilenetV1/Conv2d_6_depthwise/weights_quant/FakeQuantWithMinMaxVars", "shape": [3, 3, 256, 1], "dtype": "float32", "quantization": {"min": -3.4131247604594512, "scale": 0.024913319419412053, "dtype": "uint8"}}, {"name": "BoxPredictor_1/ClassPredictor/weights_quant/FakeQuantWithMinMaxVars", "shape": [1, 1, 1024, 12], "dtype": "float32", "quantization": {"min": -0.29957594871521, "scale": 0.0040483236312866214, "dtype": "uint8"}}, {"name": "BoxPredictor_1/ClassPredictor/act_quant/min", "shape": [], "dtype": "float32", "quantization": {"min": -282.8224792480469, "scale": 1.0, "dtype": "uint8"}}, {"name": "FeatureExtractor/MobilenetV1/MobilenetV1/Conv2d_6_pointwise/weights_quant/FakeQuantWithMinMaxVars", "shape": [1, 1, 256, 512], "dtype": "float32", "quantization": {"min": -0.3888464394737693, "scale": 0.003240386995614744, "dtype": "uint8"}}, {"name": "FeatureExtractor/MobilenetV1/MobilenetV1/Conv2d_6_pointwise/act_quant/max", "shape": [], "dtype": "float32", "quantization": {"min": 5.999101161956787, "scale": 1.0, "dtype": "uint8"}}, {"name": "BoxPredictor_1/ClassPredictor/act_quant/max", "shape": [], "dtype": "float32", "quantization": {"min": 2.38220477104187, "scale": 1.0, "dtype": "uint8"}}, {"name": "FeatureExtractor/MobilenetV1/MobilenetV1/Conv2d_7_depthwise/weights_quant/FakeQuantWithMinMaxVars", "shape": [3, 3, 512, 1], "dtype": "float32", "quantization": {"min": -3.4125423431396484, "scale": 0.025092223111320946, "dtype": "uint8"}}, {"name": "FeatureExtractor/MobilenetV1/MobilenetV1/Conv2d_7_pointwise/weights_quant/FakeQuantWithMinMaxVars", "shape": [1, 1, 512, 512], "dtype": "float32", "quantization": {"min": -0.26828474717981676, "scale": 0.002395399528391221, "dtype": "uint8"}}, {"name": "BoxPredictor_2/BoxEncodingPredictor/weights_quant/FakeQuantWithMinMaxVars", "shape": [1, 1, 512, 24], "dtype": "float32", "quantization": {"min": -0.33108031399109783, "scale": 0.002566514061946495, "dtype": "uint8"}}, {"name": "FeatureExtractor/MobilenetV1/MobilenetV1/Conv2d_8_depthwise/weights_quant/FakeQuantWithMinMaxVars", "shape": [3, 3, 512, 1], "dtype": "float32", "quantization": {"min": -3.2787477381089154, "scale": 0.023588113223805145, "dtype": "uint8"}}, {"name": "BoxPredictor_2/BoxEncodingPredictor/act_quant/min", "shape": [], "dtype": "float32", "quantization": {"min": -4.263164520263672, "scale": 1.0, "dtype": "uint8"}}, {"name": "BoxPredictor_2/BoxEncodingPredictor/act_quant/max", "shape": [], "dtype": "float32", "quantization": {"min": 4.279805660247803, "scale": 1.0, "dtype": "uint8"}}, {"name": "FeatureExtractor/MobilenetV1/MobilenetV1/Conv2d_8_pointwise/weights_quant/FakeQuantWithMinMaxVars", "shape": [1, 1, 512, 512], "dtype": "float32", "quantization": {"min": -0.22869627989974675, "scale": 0.002041931070533453, "dtype": "uint8"}}, {"name": "FeatureExtractor/MobilenetV1/MobilenetV1/Conv2d_9_depthwise/weights_quant/FakeQuantWithMinMaxVars", "shape": [3, 3, 512, 1], "dtype": "float32", "quantization": {"min": -2.3052354045942716, "scale": 0.01773258003534055, "dtype": "uint8"}}, {"name": "BoxPredictor_2/ClassPredictor/weights_quant/FakeQuantWithMinMaxVars", "shape": [1, 1, 512, 12], "dtype": "float32", "quantization": {"min": -0.3006286901586196, "scale": 0.003757858626982745, "dtype": "uint8"}}, {"name": "FeatureExtractor/MobilenetV1/MobilenetV1/Conv2d_9_pointwise/weights_quant/FakeQuantWithMinMaxVars", "shape": [1, 1, 512, 512], "dtype": "float32", "quantization": {"min": -0.24232374938095316, "scale": 0.0021830968412698483, "dtype": "uint8"}}, {"name": "BoxPredictor_2/ClassPredictor/act_quant/min", "shape": [], "dtype": "float32", "quantization": {"min": -7.864916801452637, "scale": 1.0, "dtype": "uint8"}}, {"name": "BoxPredictor_2/ClassPredictor/act_quant/max", "shape": [], "dtype": "float32", "quantization": {"min": 3.408276319503784, "scale": 1.0, "dtype": "uint8"}}, {"name": "FeatureExtractor/MobilenetV1/MobilenetV1/Conv2d_10_depthwise/weights_quant/FakeQuantWithMinMaxVars", "shape": [3, 3, 512, 1], "dtype": "float32", "quantization": {"min": -2.3157021803014417, "scale": 0.018378588732551125, "dtype": "uint8"}}, {"name": "FeatureExtractor/MobilenetV1/MobilenetV1/Conv2d_10_pointwise/weights_quant/FakeQuantWithMinMaxVars", "shape": [1, 1, 512, 512], "dtype": "float32", "quantization": {"min": -0.24060026775388157, "scale": 0.0020564125449049706, "dtype": "uint8"}}, {"name": "BoxPredictor_3/BoxEncodingPredictor/weights_quant/FakeQuantWithMinMaxVars", "shape": [1, 1, 256, 24], "dtype": "float32", "quantization": {"min": -0.17320102897344852, "scale": 0.001396782491721359, "dtype": "uint8"}}, {"name": "FeatureExtractor/MobilenetV1/MobilenetV1/Conv2d_11_depthwise/weights_quant/FakeQuantWithMinMaxVars", "shape": [3, 3, 512, 1], "dtype": "float32", "quantization": {"min": -2.710387736675786, "scale": 0.022216292923572016, "dtype": "uint8"}}, {"name": "ConstantFolding/Postprocessor/Decode/get_center_coordinates_and_sizes/truediv_recip", "shape": [], "dtype": "float32", "quantization": {"min": 0.5, "scale": 1.0, "dtype": "uint8"}}, {"name": "ConstantFolding/Postprocessor/Decode/truediv_recip", "shape": [], "dtype": "float32", "quantization": {"min": 0.10000000149011612, "scale": 1.0, "dtype": "uint8"}}, {"name": "ConstantFolding/Postprocessor/Decode/truediv_2_recip", "shape": [], "dtype": "float32", "quantization": {"min": 0.20000000298023224, "scale": 1.0, "dtype": "uint8"}}, {"name": "Postprocessor/ExpandDims", "shape": [1, 1917, 4], "dtype": "float32", "quantization": {"min": -0.44369642874773807, "scale": 0.007394940479128968, "dtype": "uint8"}}, {"name": "Preprocessor/map/while/add/y", "shape": [], "dtype": "int32"}, {"name": "Preprocessor/map/while/ResizeImage/stack", "shape": [2], "dtype": "int32"}, {"name": "Preprocessor/map/while/ResizeImage/resize/ExpandDims/dim", "shape": [], "dtype": "int32"}]}]}